MediaPipe Hands Interface/tcn_gesture_model_best.pth (torch, 319677 bytes, 16 tensors)

network.0.conv1.weight f4 [64, 63, 3]
00000000: 5a97 57bd 6e5c 2fbd 8061 fa3b 7a37 d2bc
00000010: 8486 113d 4510 6cbd 9881 91bd 965c 4e3d
00000020: 582f 503c 6a58 813d 0450 b13d 106d 07bc
00000030: daf8 b03c 49f6 eabc 18f8 bf39 7659 863d
00000040: e1ff 703d 515d 22bd 453e b4bc c670 223d
00000050: ec7e 9d3d 2fa8 80bb 745d 563d cf0c 83bd
00000060: dd87 a23b 3634 733d 4a31 9e3d f73f d63d
00000070: 8903 31bb be4d 8f3d 8bfd 66bd 73cb 2d3d
00000080: 5a2a d5bc 66dd 5fbb 0a31 323d 2bc3 deba
00000090: 0fd6 903d 041c 053d afe1 ecbc 68ef 053d
000000a0: 55b9 7b3c 9c3a a03d 0ac8 35bd 97f3 50bc
000000b0: f51b 103d fbea 2bbd f8ab 98bc 8932 9f3b
000000c0: f34e 97bc b2f1 5abd 87ef 79bc 66a1 903d
000000d0: 30ed a73d b7fd cd3d ee47 703c 1de6 afbc
000000e0: 799d a43d 5b19 1e3d 0538 18bd f46a 6cbd
000000f0: 484e 643d 459d a0ba a114 553d 92d9 983d
00000100: c8f6 463d bc38 9d3d 1a14 ff3c 11d9 a73a
00000110: 470d 6f3d c929 92bc 7938 b93d 813b 083e
00000120: 73ac 4f3d 69e3 813d 7999 353c 2b8a ea3b
00000130: 2392 65bd 98e2 373d b34e ae3d 1f2a 983d
00000140: 655e 113d a96c 933c a5c4 45bd 622e 203a
00000150: 3e1a adbc 2100 9bbc d1fd 4ebd c8f7 a33d
00000160: c3e7 803d 40a2 153e 34c2 13bd 32ae 92bd
00000170: 24dd 7b3d e9aa aebd 2189 513c e3e9 0dbc
00000180: 7b00 503b 9cf3 b63d 11dd ed3d 5364 d53a
00000190: 014a ce3c e302 46bd 7b9b 793b 1e03 ce3b
000001a0: 2030 c8bc 88ec 263d 622d dd3d 302b e13d
000001b0: db96 073c 797b 7c3c 5718 aabc d9f8 073d
000001c0: c901 0dbd 177b 013d d7ba 033d e44a fb3d
000001d0: 69d6 833d 8786 023d 16a7 82bd af7d a2bd
000001e0: 3e71 433d 6541 733d cd02 8b3d 8a2b 233d
000001f0: bed4 47bc 905b 0f3d 15bc 33bd dece b5bc
00000200: 551e d0bb beaa 283d 9c1f 4cbc d3bd 833d
00000210: b26c 22bd 05a7 e03d 3d7d 8a3d e47c eabc
00000220: 6ca5 533d 6904 593d 436c a53c 1afd 63bd
00000230: 4f2e 843d faa5 75bc 9c73 593d 412c c73c
00000240: ce7d 683d 834d 08bd 7e19 8bbd ba7f 1d3d
00000250: 0907 1f3d 57a4 203d 8e37 5abc dbd4 b6bb
00000260: d013 a03d 76d7 91bd 55ff 9fbc e30c 483d
00000270: 96f9 783b 4fcf 46bd a8e2 3ebd 7b00 f6bc
00000280: cf99 c9bc afde 143c 4a13 27bd 4327 123d
00000290: bb82 65bd 6db1 f63c e86b 9b3c d87b fabc
000002a0: d346 f8bc d079 203d 72b1 0f3d d031 f438
000002b0: 44a1 123d 40f9 5dbd 979e 4abd b6b8 aabb
000002c0: f484 fdbb 7860 7b3d e23a 4e3d 8fa2 b73d
000002d0: 69ee 95bc e40e 6abd f259 32bc 22b0 25bc
000002e0: 44e7 0b3b c96e 92bb 81e5 7c3b 8a52 74bd
000002f0: 4117 dd3c 93bd 903d 00f3 303b 64be 80bd
00000300: 111b 06bd 901f f73b f681 aabc 807a 90bd
00000310: 9a0d 493d de34 603d ce2b 62bd 5b71 9abc
00000320: 9614 cabd 7b9c 76bd a0b9 55bd c166 083d
00000330: 5b5e 46bd bb4b bdbd a83a c7bc b99b a2bd
00000340: 3f63 7fbd db87 78bd 030a a3bd 93c7 afbd
00000350: 27ae b3bd b3a3 06bd 1688 f7bd 0146 43bc
00000360: 8e73 22be 036a 07be dfbe 2dbd 33a2 ce3b
00000370: ff4b 28bd 5fef febc 4d6d 21bd 0b70 78bd
00000380: 3bcc b3bd 3495 60be f784 bebd 0647 4bbe
00000390: 7824 2a3a 80ec b8bd 8a58 33bb 34a8 50bd
000003a0: eb73 09be 264a 0fbe ee74 e2bb 7a08 473d
000003b0: eb14 973d 42fd 973d 89ef 16bd d670 83bd
000003c0: 89c6 c73c 34db 94bd e5d6 90bc f4a7 943d
000003d0: 3a66 a33d eccf b83d 097e a33d 5c16 b43d
000003e0: 4431 203c 866a 053c 4a81 1ebd 9444 babd
000003f0: 22a0 593d 842c 353d 3d4e 55bd 841f 843b
-0.052634574 -0.042812757 0.0076410174 -0.025661219 0.035528675 -0.057632703 -0.07104796 0.050381266
0.0127066 0.06315692 0.0865784 -0.008265749 0.021603037 -0.028681891 0.00036615203 0.06560032
0.058837775 -0.039639775 -0.022002349 0.03965833 0.07690224 -0.003926299 0.052335218 -0.063989274
0.004960044 0.059375964 0.07724245 0.10461419 -0.0027010164 0.0699725 -0.05639414 0.042430352
-0.026021171 -0.0034159063 0.0435038 -0.001699542 0.070720784 0.03249742 -0.028916208 0.03269902
0.015364011 0.07823679 -0.044380225 -0.012753389 0.035182912 -0.04197214 -0.018636689 0.004858319
-0.018470263 -0.053453155 -0.015254862 0.07062034 0.08199537 0.10058158 0.014665587 -0.021472031
0.08037848 0.0385984 -0.0371628 -0.057719186 0.055738717 -0.0012253901 0.052021626 0.07463373
0.048575193 0.07676837 0.031137515 0.001280578 0.05836227 -0.01784219 0.090439744 0.13303949
0.05070157 0.06342203 0.011083954 0.007157584 -0.05604757 0.04489383 0.085111044 0.07429909
0.035490412 0.01799615 -0.048283238 0.0006110427 -0.021130677 -0.01892096 -0.050535027 0.08006245
0.06294205 0.14612675 -0.03607388 -0.07162131 0.061490193 -0.08528692 0.012789042 -0.00866172
0.0031738568 0.089331836 0.11614431 0.0016280509 0.025181772 -0.048342597 0.0038087058 0.0062869927
-0.02443701 0.040752918 0.10799672 0.109945655 0.008275713 0.015410298 -0.02076356 0.033196304
-0.03442553 0.03161153 0.032160606 0.12270144 0.0643738 0.031866577 -0.06379525 -0.079341285
0.047715418 0.059388537 0.067876436 0.039836444 -0.012196718 0.03499943 -0.04388054 -0.022193369
-0.006351272 0.041178457 -0.012458708 0.064326905 -0.03965444 0.109693564 0.067621686 -0.028624006
0.05167143 0.05298272 0.020193225 -0.0556613 0.06454145 -0.014993185 0.05308877 0.024313094
0.0567606 -0.033277046 -0.067919716 0.038451888 0.03882507 0.039219227 -0.013318909 -0.0055795736
0.07816279 -0.07121174 -0.019530931 0.048840415 0.0037990562 -0.04853755 -0.046602875 -0.030029526
-0.024609474 0.009086295 -0.04078988 0.035681974 -0.056032877 0.0301139 0.018972352 -0.030576631
-0.03030721 0.03917867 0.035081334 0.00011644105 0.035798326 -0.05419278 -0.04946765 -0.0052100075
-0.0077367965 0.061371297 0.050349124 0.089665525 -0.01830216 -0.057143107 -0.010885702 -0.010112794
0.0021347562 -0.004468773 0.0038588943 -0.059649028 0.026988627 0.070674084 0.0027000308 -0.06286314
-0.032740656 0.0075416043 -0.020813923 -0.07054615 0.049085237 0.054737918 -0.055217557 -0.01885288
-0.09867208 -0.060207825 -0.05217898 0.03330112 -0.048429828 -0.0924296 -0.024319962 -0.07939858
-0.062350508 -0.060676437 -0.07960894 -0.08582988 -0.08773451 -0.03287096 -0.12086503 -0.011918546
-0.15864393 -0.13224034 -0.042418357 0.0063059567 -0.0410881 -0.03112 -0.039410878 -0.060653728
-0.08779188 -0.21931916 -0.09302705 -0.19851312 0.00064904196 -0.09029484 -0.0027366006 -0.05094166
-0.13423125 -0.13993129 -0.0069109118 0.04859207 0.07377037 0.07421352 -0.036849532 -0.06418006
0.024386661 -0.07268372 -0.017680595 0.07258597 0.079784825 0.09024033 0.07983024 0.08793327
0.009777371 0.008143073 -0.03869752 -0.090951115 0.05313123 0.044231907 -0.052076567 0.0040320773

network.0.conv1.bias f4 [64]
00000000: df9f 87bd 00f0 dbbc 9c54 52bd 4d71 893b
00000010: 8521 d03b 2e33 7bbd 93a1 abbc 62d3 5cbb
00000020: e25c 58bd 662d 023d da8b f8bc a52d 523d
00000030: ed32 093d b5ff 083d 9564 3bbd 3ba7 a7bd
00000040: a21d 1f3c a220 57bd e7c9 77bd 76b2 8cbd
00000050: 8a45 08bc 8ed2 ed3a 4e27 843d 0144 c93d
00000060: d1b7 1dbd 1141 a6bc b953 08be e43f f0bc
00000070: bfaa 1f3d 4274 85bd f0b5 6bbd aaac 1a3d
00000080: 5d53 e9bc a6b0 6fbd af9d ebbc 9cd0 2b3d
00000090: db10 87bb 1c24 b53d e3b4 4d3d 1c78 c2bd
000000a0: 55b7 78bd 4c27 b6bc 75f4 2a3c bfc9 55bd
000000b0: f220 05be 3df4 b9bd c88e 96bd a06e a7bd
000000c0: 4607 e7bb b6b2 a0bc e88a a0bd 564d 4d3c
000000d0: d801 80bd ecf5 15bd d47b a8bd 4662 8fbd
000000e0: e5fc c93a b04d 3a3c 14da 1ebc 8089 85bc
000000f0: d545 bfbb b6b0 f53a 6232 dfbc 6340 943c
-0.0662229 -0.02684784 -0.05135022 0.0041944147 0.006351652 -0.061328106 -0.020951068 -0.003369533
-0.052822955 0.031781577 -0.030340124 0.05131306 0.033495832 0.033446986 -0.04575022 -0.081861936
0.009711655 -0.052521355 -0.060495283 -0.06869976 -0.008317361 0.0018144415 0.06452809 0.09827424
-0.03850538 -0.020294698 -0.13313188 -0.02932734 0.038981196 -0.06516315 -0.057546556 0.03776232
-0.028482134 -0.058518074 -0.028761713 0.041946992 -0.0041218824 0.08844778 0.050221335 -0.09495565
-0.060721714 -0.022235535 0.01043426 -0.052194353 -0.13000849 -0.09079788 -0.07351452 -0.08175397
-0.0070504276 -0.019616466 -0.07838994 0.012530645 -0.06250352 -0.036611483 -0.08226743 -0.07001166
0.0015410451 0.011371061 -0.009695549 -0.016300917 -0.005837182 0.001874468 -0.027245704 0.018097108

network.0.conv2.weight f4 [64, 64, 3]
00000000: b74c 233d 0b0a ca3b 60c9 77bd ad5e 53bd
00000010: 3bca 78bd cde9 c5bc 09f7 db3d d1bc c33d
00000020: 3b46 713d 04c7 a4bd 585b bfbd dd06 d6bd
00000030: 8cc8 5abd 5421 013d 958b d7bd fe40 9c3d
00000040: 7e4a 643d 2805 5cbb b163 eb3d 09ab a9bc
00000050: 3e35 013d 7a3e a93d 9a08 a13d edaf 4cbd
00000060: b45c de3c d0b3 723d 735d eabc 8687 1e3e
00000070: f158 163e c907 473d 24c9 fabd c8e5 48bd
00000080: cca0 c0bd 049e 90bd 7d6b c33c 9e9c 82bd
00000090: 4bed b23d d8b2 e13c 164f 9c3c c944 7dbc
000000a0: 495e 48bd ba99 0fbc 4fc9 08bb fa30 c33d
000000b0: f6d0 94bd 511a 8c3c 21a5 923d 23a7 a93d
000000c0: c9ba 0c3e 1cd1 e93d 7e47 063e aee5 87bd
000000d0: 4a00 89bc 52a7 463d 1ac5 523e b11c 423d
000000e0: 2b8e 71bd 4a71 e7bc d47a 9e3d 5592 80bd
000000f0: d541 36bd 7f25 813c 2c93 953c 6e40 293e
00000100: b17c bd3d 6743 b83d fadd 73bd 9fd5 273d
00000110: dbba acbd 5292 0a3e b212 8b3d ca9c 37bd
00000120: 2387 0f3d 0c12 e13d e593 b2bd 40bb ceb8
00000130: b5a5 e83c 4ed5 853d 6e16 ccbc da70 503d
00000140: 5f49 ad3c 0dc6 e4bc 5e30 a13c 184c 1abd
00000150: 3fcb 253d ea2c c0bb 4796 88bd 52c9 88bd
00000160: a4a8 6bbd daf6 80bd 3b6f 533d bdd5 873d
00000170: 335b d6bb 5c53 ce3b a75c f03d e585 f5bb
00000180: b358 e8bb b360 b43c a87b 373c fef5 14bc
00000190: 68b7 833d 7a7b 26bd 1360 45bd 18f7 babb
000001a0: 79a2 90bd b7df 913c 9887 00bd 8074 513c
000001b0: b571 c0bc 37b7 813d b1e1 bb3c 056a 643d
000001c0: d0a7 4dbc f075 37bd 83d3 043e ef0b 3d3d
000001d0: e07c b6bd 937d 94bd af5e ccbd a6fb 66bd
000001e0: 5bfb 0a3e 9c6f 3c3d 8c73 5bbc fca8 c23a
000001f0: 8afc 62bd cc46 12bd 9893 dabd 2b58 91bd
00000200: 9ee0 12be b52a 98bd 3e36 33bd 371f bb3d
00000210: 51f2 a23d 9c8d 983d de1f 913c 6c7a 3d3d
00000220: b972 053d 4889 eab7 15f3 2f3e 4ec6 c13d
00000230: 4a3b 51bc e97a f93c 8cbc 2ebd 9454 3b3c
00000240: 8635 663d 75f5 5c3d 41b2 163d 84d4 ad3c
00000250: e08e 2ebd dfce 893d e518 163d aa8d 303e
00000260: 97b6 683d bb8d 6c3d b3cc fd3d 3ded 153d
00000270: 4f27 1f3d 52cd da3d 6eec c1bc 2ad7 113c
00000280: 1a31 a6bd 3685 5ebb aa2f 94bd 86d7 893d
00000290: df14 36bd 494c bbbd ba4e fdbc 898b 0fbe
000002a0: a6b1 21bc b802 483d 91af 5dbd 593e ed39
000002b0: c52a 5dbd d2a3 8f3d 7c31 26bb 8757 063d
000002c0: 7b65 bfbd f80a 933d 0d76 463c dc48 d03c
000002d0: 0ee4 703d 032e 8a3d 986f c0bd bfee c93b
000002e0: 3062 23bd 974e 57bd 5fed a53d 85aa 953d
000002f0: 03c8 eebd 1f66 853d 1095 c83d 3634 383d
00000300: f512 b83c b76b c13c 7877 c7bc a38d 3dbd
00000310: ca70 32bd b3eb 28bd 269e 6bbb 217b f33d
00000320: fe77 a8bd 7ae4 af3d 0480 653d 079a 44be
00000330: 1c84 49bd c647 c2bc 1a1e 98bc b4db eabb
00000340: 1a04 b3bc 576c 0bbd 7893 03bb 7f4d d1bc
00000350: e507 2bbe 8849 63bc 7e6c 4c3d ca45 78bd
00000360: ca21 4bbc bf3c ecbc da7c fbbc afaa 113e
00000370: 347a 543d 8d72 0ebd f4ca a5bd 8395 d5bd
00000380: 8038 f83a c937 f43d 7185 43bc 2b1d 39bd
00000390: df2a 9fbd 589f 023e ceae 5e3d 1568 363d
000003a0: 715f 713e 612e 523d f7db 4dbd 6914 80bd
000003b0: 8d6f 183d a36f a73d 239a 8ebd 60fe e5bd
000003c0: e101 2a3c e856 c8bd bef7 02bd 31ed 903a
000003d0: 1f8f 9ebd b71d b8bd 1001 7cbd 4f3e fb3d
000003e0: 73d3 bebc 978a 85bc c6d3 3bbc c55a 76bd
000003f0: 83b3 85ba 8366 c73d a226 3ebc 383d 0f3e
0.039868083 0.006165748 -0.06049478 -0.05160396 -0.060739737 -0.024159336 0.107404776 0.09557498
0.058904868 -0.08045772 -0.09343594 -0.10450528 -0.053413913 0.031525925 -0.1052467 0.07629584
0.055735104 -0.003357241 0.11493624 -0.020711439 0.031544916 0.082638696 0.07862969 -0.049972463
0.027143814 0.059253514 -0.028609013 0.15481386 0.14682366 0.04859141 -0.12245396 -0.04904726
-0.094056696 -0.07061389 0.023854965 -0.063775286 0.08736666 0.0275511 0.01908068 -0.015458294
-0.048918042 -0.008764679 -0.0020871942 0.09530826 -0.07266419 0.017102392 0.07160402 0.08283832
0.13743128 0.114168376 0.1311321 -0.06635605 -0.01672377 0.048499413 0.20583001 0.047390644
-0.058973473 -0.028252263 0.07738271 -0.062779106 -0.044496376 0.01576495 0.018258654 0.16528484
0.092522986 0.08997231 -0.059537865 0.04097521 -0.08434077 0.1353238 0.06790675 -0.04482726
0.035040986 0.1098977 -0.08719615 -9.8577235e-05 0.028399328 0.06534825 -0.024913039 0.050888874
0.02115315 -0.02792647 0.019676384 -0.037670225 0.040477034 -0.005864729 -0.06669288 -0.06679024
-0.057533875 -0.06297083 0.05161975 0.06632564 -0.0065416335 0.0062965583 0.11736422 -0.007492768
-0.007090652 0.022018766 0.011198916 -0.009091852 0.06431466 -0.0406451 -0.048187327 -0.0057057254
-0.07062239 0.01780687 -0.031379312 0.012784123 -0.02349172 0.063337736 0.022934766 0.05576517
-0.012552217 -0.04479021 0.1297131 0.04615396 -0.08910537 -0.07250514 -0.09978997 -0.056392334
0.13572447 0.046004876 -0.013394248 0.0014851387 -0.05541662 -0.03571205 -0.106726825 -0.07096895
-0.14343497 -0.07430021 -0.0437529 0.09136813 0.079563744 0.07448885 0.01771539 0.04625933
0.03258011 -2.79589e-05 0.17182572 0.09461652 -0.012770483 0.030454116 -0.04266028 0.011433739
0.056203388 0.053945024 0.03679109 0.0212195 -0.042616725 0.06728911 0.036644835 0.1724154
0.056814756 0.057752352 0.12392559 0.0366032 0.038855847 0.10683693 -0.023672309 0.008901397
-0.08114834 -0.0033953912 -0.07235654 0.06730561 -0.044453498 -0.091454096 -0.030921329 -0.14018072
-0.009869015 0.048830718 -0.05412251 0.00045250615 -0.053995866 0.07013668 -0.0025359085 0.032798316
-0.09345528 0.071798265 0.012113106 0.025425367 0.05881124 0.06747057 -0.09396285 0.006162494
-0.03988856 -0.052565183 0.081019156 0.07307915 -0.11659243 0.06513619 0.097940564 0.044971667
0.022469977 0.023610933 -0.02434896 -0.046277653 -0.043564595 -0.041240405 -0.0035952418 0.11888719
-0.08226012 0.085885 0.05603029 -0.19199382 -0.049198255 -0.023715865 -0.018569041 -0.007167304
-0.021852542 -0.034038868 -0.0020076912 -0.025549648 -0.1670223 -0.013872512 0.049908154 -0.06061343
-0.012398193 -0.02883756 -0.030699182 0.14225267 0.051874354 -0.034777213 -0.08095351 -0.10428908
0.0018937737 0.11924703 -0.01193367 -0.045193832 -0.07771849 0.12756097 0.054365925 0.044532854
0.23571564 0.05131376 -0.050258603 -0.06253893 0.037215758 0.0817559 -0.06962993 -0.11230159
0.0103764245 -0.09782201 -0.031974547 0.0011057017 -0.07742142 -0.08990043 -0.06152445 0.12267744
-0.023294186 -0.016301436 -0.011464065 -0.06014516 -0.0010200593 0.097363494 -0.0116058905 0.13988197

network.0.conv2.bias f4 [64]
00000000: fcec 053d a15e 2ebd 420e bcba 2550 e73c
00000010: 8473 ecbd e0e4 9ebc 740e e23d 82e2 a5bd
00000020: 19b1 ea3d ff6c 93bc 9082 303c 8fed 8ebd
00000030: afbd 4fbb 4b36 68bd c1ea fe3c c342 acbc
00000040: 554d 5fbd ae25 90bd fef4 ac3d e3b2 4c3c
00000050: 2e20 983c 5d08 c1bd 92c1 b9bd f37c 593d
00000060: 69db 043d 9432 7c3c 22ef b2bc 8381 8e3d
00000070: 7ca7 8c3d a861 abbd f313 5abd b1a2 f8bd
00000080: 96e9 e9bd 4e50 cb3c d1dd f03d e594 153e
00000090: 226a b9bd 1e32 953d 3b55 bdbc c615 21bd
000000a0: 1cd1 f13b 6b21 623d 2a30 ebb9 915f b3bc
000000b0: 56b3 9c3c 3702 c4bd 4285 b0bc f386 1ebd
000000c0: efe1 01be 31c9 8f3d 6e60 e9bc b945 ce3d
000000d0: 2c2c 8d3c 6270 813d 5266 a4bd 626a d5bb
000000e0: c104 103d 1d0f c0bc b2f0 b93d 5e66 6fbd
000000f0: 6ff0 fc3c 20a4 b93c c94b cd3d 0b65 ec3d
0.03269671 -0.042570714 -0.0014347511 0.028236458 -0.1154547 -0.019396245 0.11037913 -0.080998436
0.1145956 -0.01799631 0.010773316 -0.069789045 -0.0031698754 -0.056692403 0.031117799 -0.021027928
-0.05451711 -0.07038437 0.08445166 0.012493822 0.018570032 -0.09425423 -0.09070124 0.053097676
0.03243581 0.015392918 -0.021842543 0.06958296 0.068678826 -0.08368236 -0.05324168 -0.12140406
-0.11421506 0.024818566 0.11761058 0.1460758 -0.09053446 0.0728495 -0.02311193 -0.039327405
0.007379664 0.05520765 -0.00044858578 -0.021896156 0.019128483 -0.09570735 -0.021547917 -0.038702916
-0.12683843 0.07020796 -0.028488364 0.10071892 0.017232977 0.063202634 -0.080273286 -0.006512926
0.035160784 -0.023444707 0.09079112 -0.058447234 0.030876366 0.022661269 0.100242205 0.1154271

network.0.downsample.weight f4 [64, 63, 1]
00000000: 94da fdbc b0ea b0bc c0de e73b 08f5 933d
00000010: bad4 d23d ccec bfbd b171 21bc f8f9 e43d
00000020: bdd0 e6bc 1226 9f3d 83bc dd3d 2b7f a53d
00000030: 7217 563e d500 f93d 4573 3f3e fea2 103d
00000040: 5c17 d93d ec23 a43d 49ba b43c 79bc 903d
00000050: 16bd d33c 52ac 06be 19ae 613d 3226 6dbd
00000060: 2e95 6abd 5d99 59bd f461 f2bd ed16 fdbd
00000070: 6a68 5d3d 6a6e bf3d ae18 e5bd d0c4 403d
00000080: 31d7 d5bc 83db 70bd eba4 82bd 9af0 c3bc
00000090: 31d7 1ebe 8d09 1fbe fe82 c4bd 7f65 d53c
000000a0: 697e 853d 5253 0d3e 9acc 113d ea2c a5bc
000000b0: 40b9 a8bc 9ba1 a13d 0136 81bd 1077 babd
000000c0: 844d fbbd 13fa a73d 88a7 1abe e540 39bd
000000d0: b83c 41be 05d0 e43d 0e5d d93d 3f59 b93d
000000e0: 99d5 313b 9991 f53d 1abb 75bd 1362 71bd
000000f0: e037 c73c 2964 923d ba52 81bb d236 003e
00000100: 34fe 063d ac22 373d ce03 94bd dbc2 0a3e
00000110: b11f d4bd 5e35 b63c eb39 1c3d f807 d83d
00000120: 4ce4 51bc 9b3f 993d c304 963d b8a6 643e
00000130: c900 8e3d e318 563b 1ad3 20be f94c 5e3d
00000140: 93ac 31bc 245a a3bd 75c6 213d 769f 003e
00000150: e2f7 f33d 9d90 aebd 6421 31be e4e7 c2bd
00000160: 6045 babd c3a5 11be 6219 73bc deaf 073d
00000170: 2f54 d4bc 26ed 6abd 590e 2f3c c682 cb3c
00000180: a509 85bd 675b c7bd a28f 303d 038f 26be
00000190: cacf 02be 2ee2 36be 3d1b f43d aaed 753c
000001a0: f774 2d3e ae1a 31bc 8639 1b3e beec 1e3e
000001b0: 9705 113e ce21 b6bd d923 363b 6444 bdbd
000001c0: 4ce1 75bd b6f5 39be ab95 fbbc 6f5d b7bc
000001d0: ea62 16bd 6ac6 cebd 1b76 a8bd 0e1c 243b
000001e0: 6ebf e83c fd1c bbbc 4839 de3d 2555 7bbe
000001f0: 0c2b e0bc 8846 0cbe c6d5 1dbd 1cc9 aabc
00000200: b66b 943d f51a fb3d 4cf5 093e a759 1e3e
00000210: 2359 183e d7fc 2a3e 0eed 21bd c48a 823d
00000220: c85f c6bc 9f6f 843d 9594 28bd aaa1 b43d
00000230: a8a7 1a3c 0f1d 31bb e377 f1bb 0733 31bd
00000240: dca4 063e 14c6 d2bc 18bf c73a 1ef6 5fbe
00000250: 732f 2d3d ab1c 0fbd 51e4 b8be 061b 2f3e
00000260: fd3a 1a3d 4c53 43bd 6f72 26bc 9376 76bd
00000270: 764c 35bb d038 27be febe 24bd fb3b 25be
00000280: 3b05 05be 21a7 b4bd 11d8 0abe b60f f73d
00000290: 3356 853d 42f3 863d df6e bc3d b24f ff3d
000002a0: 02f9 5fbc d80d 613d c5ca 38bd bf69 193e
000002b0: f63b a1bd 8104 09bc 8bde ab3d fe19 b8bd
000002c0: 46ea 003e 1978 9a3b e4f5 b53d bcc1 46bd
000002d0: 2a20 2d3d 4d86 ba3d 7081 86bd 5e0c d63d
000002e0: 580d 973d b1c9 bab8 1019 5b3e 5dc8 e43c
000002f0: 7047 043e ba4f 3abd 705d 1f3d 2404 7e3d
00000300: 1095 efbd f9ad 12bd 67fa d43d 9a87 af3d
00000310: 220a 383d 7e41 0f3e e74e 693e 116f 783d
00000320: 4b61 c03c f590 a13d c96b b73d d28a 903d
00000330: d48a 09be 2a6d 7c3d 6f24 e73d 35af 6cbd
00000340: b1ed 89bd 25e4 de3c ae2b 1d3e 5a55 993d
00000350: 0352 b13d 8982 7ebd 104a c4bd 4f72 2cbb
00000360: 1a29 f6bd 0233 76bd 4d30 ce3c 8ccc ec3c
00000370: cdff 6c3d 30e7 163d 7ccd 833c 8e31 f4bc
00000380: 3c22 febc dfae a33d daec 8d3d 6c91 e6bd
00000390: 991e a4bd 2fbd 84bd 409e 053e 21b2 4bbd
000003a0: 2178 c3bc 8c1d 2c3e 4b4a 0f3e ad51 fd3b
000003b0: 4b25 283d 3347 47be 8bf1 0dbd 23e4 38be
000003c0: 7de0 31bd fb1d a83c 7e80 3d3e 1e3a 2cbc
000003d0: 89a7 983c d304 56bd bff2 94bd 34eb 0f3d
000003e0: c13f afbc 4bd0 33be 9990 96bd 2a00 3dbe
000003f0: 8002 733c 44e9 b63d e8d9 763d cf89 5e3d
-0.030988015 -0.021596283 0.0070761144 0.072244704 0.102944806 -0.09371337 -0.009853766 0.1118049
-0.028175706 0.07770933 0.108269714 0.08080896 0.20907381 0.12158362 0.18696316 0.03531169
0.106001586 0.08014664 0.022061484 0.07067198 0.025847 -0.13151672 0.055097673 -0.057897754
-0.057271175 -0.053124774 -0.11835089 -0.12357888 0.054054655 0.09347232 -0.11186348 0.047062695
-0.026103588 -0.058803093 -0.06379112 -0.023918439 -0.15511777 -0.15530987 -0.09595297 0.026049374
0.065182514 0.13801315 0.035595514 -0.020163018 -0.020596147 0.07892152 -0.063091286 -0.091047406
-0.12270644 0.08201995 -0.1510297 -0.045227904 -0.18870819 0.11172489 0.10613452 0.090502255
0.002713537 0.11990661 -0.059992887 -0.05893142 0.024318635 0.0714801 -0.0039466294 0.12520912
0.03295727 0.0447108 -0.07227288 0.13550894 -0.10357607 0.022242244 0.038141172 0.10548395
-0.012810778 0.07482835 0.07325127 0.22329223 0.069337435 0.0032668642 -0.15705529 0.054272626
-0.010844368 -0.07976177 0.039495904 0.1256083 0.11912514 -0.085236765 -0.17297894 -0.09516886
-0.090952635 -0.1422339 -0.014837595 0.033126704 -0.025919048 -0.05735507 0.010684573 0.024842631
-0.0649598 -0.097342305 0.04310573 -0.16265492 -0.12774578 -0.17859718 0.11919258 0.015010277
0.1693915 -0.010809584 0.15158662 0.15519997 0.14162289 -0.088931665 0.0027792363 -0.0924156
-0.060029313 -0.18160138 -0.030711016 -0.02238342 -0.036715426 -0.10096438 -0.08225652 0.0025041136
0.028411593 -0.022840971 0.10850769 -0.24544199 -0.027364276 -0.1369878 -0.03853395 -0.02084785
0.07247107 0.12261001 0.1347248 0.15463887 0.14877753 0.16698013 -0.039532714 0.06374124
-0.024215594 0.064666025 -0.041157324 0.088198975 0.009439386 -0.0027025377 -0.007369028 -0.043261554
0.13148826 -0.025729217 0.0015239445 -0.2187123 0.04228158 -0.03493945 -0.36111692 0.17100152
0.03765391 -0.04768686 -0.010159119 -0.060171675 -0.0027663982 -0.16330266 -0.040221207 -0.16136162
-0.12990277 -0.0882094 -0.13558985 0.120635435 0.06510582 0.065893665 0.092008345 0.124663725
-0.013670208 0.054944843 -0.04511525 0.14981745 -0.07872765 -0.00836289 0.08392056 -0.089893326
0.12589368 0.004714024 0.088847905 -0.048524603 0.042267002 0.09107647 -0.06567657 0.104515776
0.07375592 -8.906739e-05 0.2139628 0.027927572 0.12917876 -0.04548619 0.03890747 0.062015668
-0.11698353 -0.035810445 0.10399323 0.08570786 0.04493154 0.13989827 0.22784005 0.060652796
0.023483893 0.078889765 0.08956105 0.07057728 -0.13431865 0.061627544 0.11286246 -0.057784278
-0.06734789 0.027208397 0.15348694 0.07486983 0.086582206 -0.062136207 -0.09584439 -0.002631325
-0.12019558 -0.06010724 0.025169516 0.02890613 0.057861138 0.03684157 0.016089194 -0.029808786
-0.031022184 0.079923384 0.069299415 -0.11258206 -0.080136485 -0.064813964 0.13048649 -0.049730424
-0.023860993 0.16808146 0.13993184 0.007730684 0.04105119 -0.19460754 -0.03465418 -0.18055777
-0.04342698 0.020522108 0.18506047 -0.010511903 0.018634574 -0.052250694 -0.07272863 0.035136417
-0.021392705 -0.17559926 -0.073517986 -0.18457094 0.014832139 0.08931211 0.060266405 0.054330643

network.0.downsample.bias f4 [64]
00000000: b162 4e3d 5a04 91bd c541 c9bd 5232 003e
00000010: 3884 fcbd 666b c7bd 5539 e63d 9ba3 ddbc
00000020: 1ce2 d7ba d508 9c3d ffd7 aa3d 07dc ebbc
00000030: 2691 2b3d f46e 9fbd 0d94 9e3d 9696 14be
00000040: f9d1 35bc 7a39 f3bd 32c7 0b3e 6686 923c
00000050: 6ab9 11be e3d2 843d 6218 a739 bc5e cc3d
00000060: 6d4f c43b 0c91 b0bd 9e15 b3bd 9ea2 f8bd
00000070: e399 8a3d 5889 4f3d 4973 d8bb 3cac 38be
00000080: 1488 7bbd a547 793a e31f 0e3c 33ef d6bc
00000090: 06f8 803d 8a8f 47bc faac 0cbd a544 f3bd
000000a0: d2b6 ad3d 8cfc b73d a313 afbd 4a31 03be
000000b0: f340 d7bb e47f 8abd f0ac a43c 3370 96bb
000000c0: 7f33 dbbd 1956 5ebd 0675 e7bd fa19 40bd
000000d0: 64eb 6b3d ce00 a6b9 ed7f 3fbd 69a0 753d
000000e0: 128a 11bd cd3d 6ebd 6d89 b63d d335 02be
000000f0: af35 e3bd 367c 333d fafd b43d 7a6b 623d
0.05038709 -0.07080908 -0.09826998 0.12519196 -0.12329906 -0.097372815 0.11241404 -0.027055552
-0.0016470584 0.07618872 0.08341979 -0.02879144 0.04188647 -0.077848345 0.07743082 -0.14510569
-0.011097425 -0.11876197 0.13650206 0.017886352 -0.14230886 0.06485536 0.0003187089 0.09979007
0.0059909136 -0.086214155 -0.087443575 -0.12140392 0.06767633 0.05066809 -0.00660554 -0.18034452
-0.06140907 0.0009509272 0.008674595 -0.026237106 0.06297307 -0.0121802185 -0.03434465 -0.11878327
0.08482136 0.08983716 -0.08548667 -0.12811771 -0.006569022 -0.067626745 0.020101994 -0.004591012
-0.107031815 -0.054281328 -0.11301617 -0.046899773 0.057597533 -0.00031662587 -0.04675286 0.059967432
-0.035532065 -0.058164407 0.08912931 -0.12715845 -0.11094224 0.04381963 0.08837505 0.05527828

network.1.conv1.weight f4 [64, 64, 3]
00000000: c93a 2d3c e587 56bd 57d2 b93b 9ce3 453c
00000010: 0a4e c4bc c0e8 6cbc 576a 88bd dbff 62bc
00000020: 24b3 edbd f31a a6bd 7ebc 95bd 8f02 e03c
00000030: 6f06 db3d c4bc ad3d bfc8 88bb 3f51 06be
00000040: e715 0a3d b9cc 043d 0b34 39bd cd40 0b3e
00000050: adf1 123e 2403 90bd a844 623d 9644 cabc
00000060: 37df 513d d90e 9ebc f316 d43d 84a3 7c3d
00000070: 914f a13d aa7a 6b3e a497 dbbc 75bf b6bd
00000080: b41e e2bb 4bd0 d43c 672a c23c 908a 493b
00000090: acfa 0d3d e09e 6cbd 9c02 f6bc 8c54 ccbd
000000a0: 4ff2 d3bd 3ba0 44be 51e4 91bd 09f0 513d
000000b0: f46b 14bd 1eba 893d cb10 22bc eb06 f2bd
000000c0: 4899 063d f05f cb3d 9d3a 9dbc 830c 953d
000000d0: 9d2e ae3d 1313 60bd 3834 9bbd ffe5 d8bb
000000e0: 65de 83bd 2b97 cdbc 677d 783d 54b9 523d
000000f0: 9071 04bc a02e 0c3e f8e3 753c 91f7 e0bc
00000100: e3cf b6bd 8431 8bbd 3065 ee3d 9445 f33c
00000110: 8712 8bbc ed95 dbbc d567 d4bc 1367 643c
00000120: 5ddb 45bb 1147 ccbb 732f bdbc 77c0 adbd
00000130: 9546 47bd de82 843d 3743 013e 4404 753d
00000140: 1598 f83d 07cf 4d3d 5db2 4b3d e005 a63c
00000150: 9c1b dc3c 8f63 e2bd b90b 85ba 40fd ebbd
00000160: a8fa 9ebc b10f 31bd 546d 64bd dff9 bbbd
00000170: e672 4a3d 2284 e23d c651 1c3e c9ec 1a3e
00000180: 8d88 d43c e220 8dbd 12ca 06bd 14a5 bebd
00000190: 0200 1abd 5a39 90bd 1140 b4bc bba8 49bc
000001a0: 263a ff3c 448f ec3d 325e ec3c 70b4 383d
000001b0: 9840 81bd e45a 50bd 2a14 1bbe e608 a3bd
000001c0: 709c 85bd 35a5 0cbd c1c1 29be 3cc5 17be
000001d0: 1fe1 73be 9e17 b6bc 3f8b d6bc 5c35 c93d
000001e0: 92dc dabb 57d0 863c cc7f 1b3d 9d47 94bc
000001f0: db68 9dbd 0100 fc3c f00f 513d ebff 183d
00000200: dee6 2fbd 1b74 0cbc 28b2 eb3c 5740 da3d
00000210: 826f b1bd 5a0d 93bd 4a30 87bd 1848 023d
00000220: 395e 4c3e 097d 313e 61e9 62bd 0ece 623d
00000230: c819 9f3d d34e 0d3d 08f1 f2bc 5635 33bd
00000240: 509f cbbc e78f 0dbd f44e 56bc 6dfc 9f3c
00000250: 7cf0 693b 8fdf e1ba 803d d6bd 66ec 3ebc
00000260: 8708 d3bc 16cf 203c fa77 623d ee2f 3f3e
00000270: ee33 3d3d 8100 71bc 1579 383e b301 28bd
00000280: c61d 05be bb07 26be 206b 693d 8168 893d
00000290: ccf6 3d3e 40e5 bbbc 2aca 703d dd4e e6bc
000002a0: 1225 c63c 562c 21bd cb33 31bd 3f26 3c3d
000002b0: 8136 91bd 279f 07be 3e11 d7bd cabd d3bd
000002c0: e61c 20be 2768 7c3d c2e4 d73d c151 95bd
000002d0: 3cb9 81bd fc4a 1dbd e0af 1cbe 6d35 b23d
000002e0: 36ae 16bd af9d 99bd 6a38 ea3c 8bdc 3dbd
000002f0: a313 c53d 5bc6 9bbc 6270 8d3d 697c 13bd
00000300: a88a 37bc 6335 7ebd b5d5 cbbb a97d 8cbd
00000310: 502b 5bbd fca8 9dbd da78 5f3d 9dc9 2ebc
00000320: ab89 5dbd 87f4 653c befe 96bb 3b92 b4bc
00000330: ee41 11b9 7391 883c ab1c a23d d2be 08bc
00000340: 05cb 6fbb a101 52bc d769 95bc ede6 a03c
00000350: b626 7f3d ee35 1c3d 458e c4ba e3db d63d
00000360: 2619 dbbc ebaa 9cbd d70f ecbb ba92 df3c
00000370: e25a d5bc 5c81 93bc b0d3 183d db75 a8bd
00000380: 896f 18bd cf89 89bc 8101 8c3c 9a85 0dbd
00000390: 39c2 5ebd 252c 9bbd 9060 e8bd 2b94 af3d
000003a0: 6f25 b13d 5ea6 ca3d 74f9 b4bc 9a4f 4cbd
000003b0: 92a5 c43b 7f84 373e ca7a 803d f7de 213d
000003c0: e493 813d ecf1 1f3d 481b 55bd 7f18 07bd
000003d0: 279f ad3d de3f 113c d8b8 91bd a3ed 27bc
000003e0: 9740 aabd d850 15be 19e4 88bd f0d9 393d
000003f0: b73b ddbd 88a9 873c 3366 5e3d d7c8 0cbd
0.0105730975 -0.052375693 0.0056708264 0.012078192 -0.023962993 -0.014459789 -0.06660908 -0.013854946
-0.11606434 -0.08110609 -0.07311343 0.02734497 0.106945865 0.0848327 -0.0041743214 -0.1311693
0.033712294 0.0324218 -0.045215648 0.13598938 0.14350004 -0.07031849 0.055241257 -0.024690907
0.051238265 -0.01929419 0.1035594 0.06167938 0.07876504 0.22996011 -0.026805706 -0.08923236
-0.0069006328 0.025978228 0.02370186 0.0030752756 0.034662887 -0.057768703 -0.030030541 -0.099770635
-0.10348951 -0.19201748 -0.07123626 0.051254306 -0.036235765 0.06724952 -0.009891699 -0.11817726
0.032861024 0.09930408 -0.019192988 0.07277777 0.085049845 -0.05470569 -0.07578319 -0.0066192145
-0.06438903 -0.025096497 0.060666468 0.051446274 -0.008083716 0.13689661 0.015007965 -0.027461799
-0.0892637 -0.06796554 0.11640394 0.029696263 -0.016976608 -0.026804889 -0.025928417 0.01394059
-0.0030190565 -0.0062340577 -0.023093915 -0.084839754 -0.048651297 0.064702734 0.12623297 0.05981852
0.12138382 0.050246265 0.049730647 0.020266473 0.026868634 -0.110541455 -0.0010150588 -0.11522913
-0.019406632 -0.043227855 -0.055768326 -0.091785185 0.049425982 0.110603586 0.15265569 0.15129389
0.025944019 -0.068910375 -0.032907553 -0.0930883 -0.037597664 -0.07042189 -0.022003205 -0.012308295
0.031155657 0.11550763 0.02885351 0.045093954 -0.063111484 -0.05086793 -0.1514441 -0.079606816
-0.06523979 -0.03433724 -0.16577817 -0.14821333 -0.23816346 -0.022228058 -0.026189445 0.098246306
-0.006679126 0.016456766 0.037963673 -0.018100554 -0.07686015 0.03076172 0.05104059 0.037353437
-0.04294478 -0.008572604 0.028771475 0.10656803 -0.086638466 -0.07180281 -0.06601007 0.031807035
0.19957818 0.17332853 -0.05539835 0.05537229 0.07768589 0.034499 -0.029655948 -0.043752037
-0.02485624 -0.034561064 -0.013080347 0.019529546 0.0035696318 -0.0017232763 -0.10460949 -0.0116530415
-0.025760902 0.009814998 0.0552902 0.18670627 0.046192102 -0.014709593 0.18014939 -0.041017246
-0.12999639 -0.16213886 0.056986928 0.06709386 0.18551177 -0.022936463 0.05878655 -0.028113777
0.024187598 -0.039348923 -0.043262284 0.04593491 -0.07090474 -0.13244306 -0.105013356 -0.10338934
-0.15636024 0.061622765 0.10541679 -0.07290984 -0.06334159 -0.03840159 -0.15301466 0.087015964
-0.036787234 -0.07500779 0.028591353 -0.046352904 0.09622886 -0.019015482 0.06906201 -0.03600732
-0.011202492 -0.062062632 -0.006220544 -0.06859905 -0.053508103 -0.07698247 0.054558612 -0.010668186
-0.05408637 0.014035351 -0.0046080044 -0.022042384 -0.00013852838 0.016670918 0.07915624 -0.008346276
-0.0036589515 -0.012817771 -0.018238945 0.019641364 0.062292777 0.03813737 -0.0014996013 0.10491159
-0.02674539 -0.076497875 -0.0072040367 0.027291644 -0.026044313 -0.01800602 0.037311256 -0.08225604
-0.037215743 -0.016789345 0.01709056 -0.03455124 -0.054384444 -0.07576779 -0.11346543 0.08573183
0.08649718 0.09895013 -0.022091605 -0.0498806 0.006001183 0.17921637 0.0627342 0.039519276
0.06327036 0.039049074 -0.05202797 -0.032982346 0.084776215 0.008865325 -0.07115334 -0.010249528
-0.08313101 -0.1458162 -0.06684131 0.045373857 -0.10802405 0.016560331 0.054296684 -0.034371223

network.1.conv1.bias f4 [64]
00000000: 300a abbd f11a c1bc 9692 3dbd a65d 4fbc
00000010: d40e 40bd e933 18be 23ec 88bd bd83 20bc
00000020: 8f65 62bd 732c c63c 2aa8 ac3d bff4 21bb
00000030: ca0b f6bc aaf0 85bc d13f e2bc 4a91 09be
00000040: 5526 a3bb dbf1 91bd 0b1c 81bd c297 1fbd
00000050: 1194 0dbe cb19 d23c dbae 843d 4873 8ebd
00000060: 5788 bcbc 33e4 8bbd 93a8 003d fa36 d9bc
00000070: 4cae 2ebd e306 9fbd 6eff b7bc 9a04 8d3c
00000080: 498b 8abc 889c 04bc c133 dc3d c0da 303c
00000090: 9489 19bd 98ee 33bd c070 4fbd 7c73 d8bd
000000a0: b53a 6ebb e39a e8bd d5c1 a1bd 4f51 09bd
000000b0: 94c2 eebc 3540 10bd 0225 c6bd 3149 30bd
000000c0: 8568 22be eeed 423d 42e0 cbbd a8c2 14bd
000000d0: f2db e7bd 8b5d 9d3d 00fd a7bc a895 7cbc
000000e0: 15ca 2dbd fcd5 10bd 2cf9 7abd f638 1cbe
000000f0: 535c 9dbd 296f dbbd eb3e 89bd a0e1 dc3b
-0.083515525 -0.023572417 -0.046282373 -0.012656605 -0.04688914 -0.14863552 -0.066856645 -0.009797034
-0.055272635 0.024191117 0.08430512 -0.002471253 -0.030034918 -0.01635011 -0.02761832 -0.1343433
-0.004978935 -0.071262084 -0.06304177 -0.038963087 -0.13826014 0.025647065 0.064786635 -0.06955582
-0.02301423 -0.06830635 0.031410765 -0.026515473 -0.04264669 -0.077649854 -0.022460666 0.017214108
-0.01691212 -0.008093961 0.10752059 0.010794342 -0.03748472 -0.043928713 -0.050644636 -0.10568902
-0.003635091 -0.11357667 -0.07898299 -0.033524808 -0.029145516 -0.035217483 -0.096750274 -0.04303855
-0.15860184 0.04759019 -0.09954883 -0.03631845 -0.11321248 0.076838575 -0.020506382 -0.01541654
-0.04242905 -0.03536032 -0.061272785 -0.15256104 -0.07683625 -0.107145615 -0.06701454 0.006740764

network.1.conv2.weight f4 [64, 64, 3]
00000000: 2a03 1d3b 3d38 b23b ca44 38bd 74c1 fb3c
00000010: 2370 8fbc f8d1 3f3d e24d 3f3d 0273 013c
00000020: 7dea 693b a483 ff3c 5762 603d 5711 87bd
00000030: d2c5 3e3d 3dd3 d43d 34fd 81bd 2584 1e3c
00000040: 0dac 7a3c 0ccc 9cbd c2b1 143d ea95 68bd
00000050: f575 c33c 7c94 f639 644d 88bd 9205 00bd
00000060: f088 433d 1be0 5ebd 0f27 2cbd 426f 5cbd
00000070: 3c56 d13c 6b64 3d3d 2530 7abd e727 e7bd
00000080: 6be7 97bd 0841 24bd ae4e 14bd 7bb2 bbbd
00000090: f5cc 2c3d c363 2ebd 2038 d4bd 06d4 fb3c
000000a0: f90f 40bc a1dc b6bd efc7 e3bc 506f 1fbd
000000b0: d55e bdbd e0b9 95bc d74a d0bc 90ea 70bd
000000c0: e9e7 4abd 6169 b03c b04b d23c 9e5b 4bbd
000000d0: e105 a23d e9c7 02bd f603 80bd 78ae de39
000000e0: 8e2a d8bd 6d75 e6bc 592c b13c e008 c93c
000000f0: 3c1a e43d 629a 95bd 54e9 413d ca00 8fbc
00000100: e7b6 a1bd fd95 94bd 6626 0dbd 9b19 b7bc
00000110: aee9 263b 482d 333d f832 d5bc baba 9dbd
00000120: 3f87 a5bc 4cac fc3c f3b2 bbbd 06d6 c3bc
00000130: 0b4c f6bd 797e 04bd 39b3 66bd ed03 31bc
00000140: 4653 9ebc ecd5 843d 3d4f 4bbd 418e 2d3c
00000150: 1416 14bd d13d be3d 77fa 94bc e2a6 91bd
00000160: 89ac fd3c 0752 71bd dd70 96bc ebc5 aebc
00000170: 7a24 293c 1c7d 6abc fffc 0bbe 9870 72bd
00000180: 266f 3cbd 1b9b 98bd 50f4 e1bd 43b9 8b3d
00000190: 6394 603d c5fd 45bd b0f7 1fbd 99f5 b6bd
000001a0: 833a c83c 3b3d 74bb b60e acbd fee4 453d
000001b0: a5ea a9bc 37b7 91bd 2138 e53b fb05 9abd
000001c0: 5c80 9bbd 7bca f7bd 58b8 91bd 3cd0 14bd
000001d0: c2f7 ec3c 5a93 d93d 913a 273b ba5d 593d
000001e0: 3cb8 f13d 55b9 0f3c 2c4c 9b3b f5e4 303d
000001f0: a396 893c 9718 9ebd 2a92 debd c218 13bd
00000200: 60e1 b0ba 72b5 1f3d ca7d 19bd 1625 29bd
00000210: deb1 d33c 5af0 ae3c ec24 f8bc dfde 2c3d
00000220: 44cf d6bd ead8 363c 08e9 1a3b e058 313b
00000230: 4db1 5dbd fdef 85bc 42c0 c7bd dea9 1c3d
00000240: 57db 953b c657 40bd 585d 4f3d 5a39 75bd
00000250: dcf0 c0bd 60e3 bfbd e752 4a3d ac0c 16bd
00000260: 8944 86bc e86a 473d 3b78 06bd b19b 613c
00000270: e035 91bc b4ef a63d dcf8 aebb 5cd5 96bd
00000280: c7ca 65bd aaf2 a5bc 7aa5 42bd 4ff6 d2bd
00000290: 3520 78bc df8d 32be 0f74 d6bd 0a07 17be
000002a0: ebd8 9a3d 96f7 4abb 5c81 91bd 15ce 1e3e
000002b0: 948c 333c 49d5 b5bb fdd8 a6bd fa6a dabd
000002c0: d625 523d eac3 b7bc 468b e63c 03e5 ec3b
000002d0: 2da3 fd3d 7855 ecbc 9b10 81bc 8603 bbbc
000002e0: ae35 953d 2edd 6fbd 880e abbd f1f5 413d
000002f0: 65a6 8abd d69d 9abd 30a9 403d 886a abbb
00000300: 9275 38be 2c7f d63d d231 833d c8a9 013c
00000310: 9d3f 653d 8a8c be3c 56aa 413c 4238 8d3d
00000320: 74d1 233b 2d83 373d 33b2 fd3a 0cec 2bbe
00000330: 8c4c a2bd 152f cabb 72e8 8c3d 922d b6bd
00000340: ffe4 6cbd 7198 5e3e bcbf 483d 6de9 23bd
00000350: fa0a 943c 1b6c ecbd 9fd7 9cbd 832a 5c3d
00000360: 1e35 31ba f027 b43d 6b22 c73c 060f 5bbd
00000370: a0c2 173d 6181 e3bd c5b1 a53d 5d90 693d
00000380: bb49 95bb ab9f 7c3c 56fb 22bd 31c5 d63c
00000390: 4c27 8bbd 5ffd 9a3c 9c8b d03d 0f82 d73d
000003a0: 5b9b 033c 554e 66bc 0916 c0bd 99ce dcbb
000003b0: 640f 83bd f915 14bc 12e8 19bd 748f 2d3e
000003c0: 2ed9 d33c 22f0 6c3c 40d1 4cbc 8ed3 e2bd
000003d0: 00a1 183e ad84 8e3c afb6 953d 4bbf 183c
000003e0: 2d78 83bd 428b d63d d9e0 013d 9f05 b5bc
000003f0: 0a3b 92bd e449 ba3d b8ae d1bc 433f 88bd
0.0023958185 0.005438833 -0.044987477 0.030731894 -0.017509526 0.0468311 0.046705134 0.007900955
0.0035692744 0.0311907 0.054781284 -0.06595104 0.046575375 0.10391853 -0.06347123 0.00967506
0.015299809 -0.07656106 0.036302336 -0.056783594 0.023859957 0.00047031406 -0.06655386 -0.031255312
0.047738016 -0.054412942 -0.042029437 -0.05381704 0.025553815 0.046238344 -0.06108107 -0.11286908
-0.07417186 -0.04010108 -0.036207847 -0.09164902 0.04218765 -0.04257561 -0.103622675 0.03074075
-0.011722558 -0.089288004 -0.027805297 -0.038924515 -0.092466034 -0.018277109 -0.025426311 -0.058817446
-0.049537573 0.021534624 0.025670856 -0.04964792 0.079112776 -0.03192893 -0.062507555 0.0004247313
-0.10554992 -0.028132165 0.021627592 0.024540365 0.11137816 -0.07304837 0.04734166 -0.017456431
-0.07896214 -0.072551705 -0.034460448 -0.022351077 0.0025468874 0.043744355 -0.02602528 -0.07701631
-0.020206092 0.030843876 -0.09164991 -0.023905765 -0.12026223 -0.032347176 -0.056323264 -0.010804159
-0.019326817 0.06486115 -0.049636114 0.010592998 -0.036153868 0.09289134 -0.018185837 -0.071119085
0.03096606 -0.058916118 -0.018364364 -0.021334609 0.010323638 -0.014312055 -0.13670729 -0.05918941
-0.046004437 -0.07451459 -0.11032927 0.06822445 0.054829013 -0.048337717 -0.039054573 -0.08933563
0.024441963 -0.0037267942 -0.084012434 0.048314087 -0.02074177 -0.071150236 0.0069952165 -0.07520672
-0.07592842 -0.12099167 -0.07115239 -0.0363314 0.028926734 0.10623808 0.0025517086 0.0530679
0.11802718 0.008772214 0.004739305 0.0431871 0.016795462 -0.07719534 -0.10867722 -0.035912283
-0.0013494901 0.0389914 -0.037473477 -0.041295134 0.02584165 0.021354843 -0.030291043 0.042204734
-0.104887515 0.011160115 0.0023637433 0.002706103 -0.054124165 -0.016349787 -0.09753467 0.038247935
0.0045732665 -0.046958707 0.05062613 -0.059869148 -0.0942094 -0.0936954 0.049395468 -0.03663318
-0.016390102 0.048685938 -0.032829504 0.01377003 -0.017725885 0.081511885 -0.005339725 -0.07364914
-0.056101587 -0.020257313 -0.047521092 -0.10300886 -0.0151443975 -0.17436932 -0.10471355 -0.14748779
0.07560905 -0.0030970327 -0.071047515 0.15508302 0.010958809 -0.005549107 -0.08146856 -0.106649354
0.051305614 -0.022432286 0.028142583 0.0072294488 0.12384639 -0.028849348 -0.015754988 -0.022828829
0.07285629 -0.058560543 -0.08352381 0.04735369 -0.067700185 -0.07549636 0.04703635 -0.0052312054
-0.180136 0.10473475 0.06405987 0.007914014 0.05596887 0.023260374 0.011820396 0.06895496
0.002499667 0.044802833 0.0019355476 -0.16789263 -0.079247564 -0.0061701634 0.06880273 -0.088954106
-0.057835575 0.2173784 0.049010977 -0.040017534 0.01807164 -0.11544057 -0.07658314 0.05375148
-0.0006759929 0.0879668 0.024308404 -0.053481124 0.037050843 -0.111086614 0.080905475 0.05702244
-0.0045559085 0.015418927 -0.039790474 0.026217075 -0.06794605 0.018919645 0.101828784 0.105228536
0.008032645 -0.014056762 -0.09379203 -0.0067384955 -0.0639942 -0.009038442 -0.037574835 0.16949254
0.025860395 0.014461549 -0.012501061 -0.11075507 0.14905167 0.01739725 0.07310235 0.009322952
-0.06419406 0.1047578 0.031708572 -0.022097407 -0.07140167 0.09096125 -0.025596008 -0.06652691

network.1.conv2.bias f4 [64]
00000000: 5f86 91bd e13d fc3c b9f9 15bd ed68 10be
00000010: b993 9dbd 2d54 f6bd 787e 923d d84e 96bd
00000020: 6d6e f1bc 1809 c5bd 6a26 5cbd 246f fcbc
00000030: 5b3b 3bbd 74ed 96bd 275b be3c 0d20 33bc
00000040: c8bd 30bd e251 873b fc82 893c 8be3 9c3d
00000050: 28dc fdbd 2702 a3bd 8933 763d e886 5f3d
00000060: 427a dabd 1b58 1bbd a80d 99bc a1c4 2e3d
00000070: ebbe a83d 07c8 0ebc 7f18 efbd 8a21 99bc
00000080: f0a6 78bd 6339 9c3d 7688 403d c0ff efbd
00000090: 1de8 6abd 8631 cbbd 4eea 02be c536 ab3d
000000a0: 6d45 12be 95eb dcbd 7a6b 84bd e9c7 b9bd
000000b0: 3fb9 cbbc b7bf d7bd bea9 cbbd 303f e2bc
000000c0: 6c68 9fbd d417 cc3c 64a9 03bd a10e 7c3d
000000d0: ec8b 22be 0a2c 8f3d 2db5 41bc ed05 75bd
000000e0: 7338 523d 69a8 e9bc 06ad 00bd 0da6 d7bc
000000f0: 056f acbd d1aa f63b 1003 673d 99ca 953d
-0.071057074 0.030791225 -0.036615107 -0.14102526 -0.076941915 -0.12027774 0.07153028 -0.07339257
-0.0294716 -0.09620875 -0.053747572 -0.030814715 -0.045710903 -0.07369509 0.023236824 -0.0109329345
-0.04314974 0.0041296342 0.016786091 0.07660588 -0.12395507 -0.07959395 0.06010774 0.054572016
-0.1066785 -0.03792582 -0.01868327 0.04266799 0.0823954 -0.008714682 -0.11674594 -0.01869275
-0.06070608 0.07628133 0.04700514 -0.11718702 -0.057350267 -0.09921555 -0.12784693 0.08360056
-0.14284296 -0.10787121 -0.06465812 -0.09071333 -0.024868606 -0.105346136 -0.09944485 -0.02761802
-0.07783589 0.024913706 -0.032143965 0.06153739 -0.15873688 0.06990822 -0.011822981 -0.059820104
0.051323365 -0.028522687 -0.031415008 -0.026324296 -0.08419613 0.007527687 0.056399405 0.07314033

network.2.conv1.weight f4 [64, 64, 3]
00000000: d5e1 123c fa48 48ba cac4 953d f2f6 163e
00000010: 9720 163d 69d5 ee3c b57f aa3d 94ee 8a3d
00000020: 2eb9 393c 0298 883d 4db5 2a3d 266d 033e
00000030: 0eb8 cb3d 1e6d 863c fa20 acbd dfca 743b
00000040: d1ee a73c 09b7 c43c 0920 993d 7fea c83d
00000050: 90f8 2c3d 4d0f 2c3d a2e1 2cbb df3d 943a
00000060: a0ad 233d 0c07 5dbd f81f 333c 2fa8 aa3d
00000070: 5bf2 a23d eac9 75bd d5d9 dc3d 389f 673d
00000080: 4093 893d c12c f93d ed76 4d3d ce1a 17bd
00000090: 19d4 aa3d 4814 f13c 12a3 82bd 7be5 54bd
000000a0: c1e1 a43d 3341 d73d 9611 703a cc11 fa3b
000000b0: f936 99bc 7c85 603d 5937 01bc 098f aa3d
000000c0: 9533 213d 5804 1c3d 5fce 43bc a8f2 f63d
000000d0: 5194 973d fde5 cb3d 9824 473d 2cb9 a13c
000000e0: 7895 273d 09d4 e3bd 1274 a9bd bf24 73bd
000000f0: e859 b6bd 3eb1 e3bb 5921 7cbd 4577 49bd
00000100: b6a8 edbd 1df4 9d3b da06 6f3c b4fd 7cbc
00000110: 9844 8ebc 6d78 4cbb 611f 983c 6acb 50bd
00000120: 3a44 f0bd 6dbf 283d ea32 e83c e3b8 88bd
00000130: ca78 1abd 7be7 5cbd c4af 44bd f889 0f3d
00000140: ec7f 1e3e 682f dbbd 0054 65bb df1b 2c3d
00000150: 7fe5 69bd cd85 0cbd fada dfbc dd3c e7bd
00000160: 7438 4c3d 7117 fe3c d680 0e3e 7332 233d
00000170: 1234 09bb 8fe6 873d 3098 103e b369 cf3c
00000180: 8c13 303e 5a43 8b3d f00b a73d 1519 543d
00000190: a9ee a7bc 660e dc3d a254 ab3d d533 3e3d
000001a0: 6a32 5b3c 9527 4d3d a7a4 30bd 69d5 98bd
000001b0: 369e f43d 9aff 1e3c 3b72 bc3d 8779 dbbd
000001c0: f1fb 8ebd 1952 b7bd bd77 c0bd f63c 26be
000001d0: 510c 1cbe c81c 873c 199b 66bd 2630 963c
000001e0: 5227 993d aa7b 83bd e579 a4bd 75e0 2fbe
000001f0: c847 80bd aa35 46bd fc9e 973d 1cc7 e63c
00000200: 5d5a 9d3d 1261 713e dc6f 103d e203 933d
00000210: fc87 35bc d413 fd3c fdd7 c6bc 8e09 803e
00000220: e567 693c acb5 8b3d 3bb6 e83d 29f4 3c3d
00000230: 750d a53d ddbf f0bd bfc4 b3bc c74d 933d
00000240: 755f 3c3e 6e87 1a3d d718 f53d c3d6 58bd
00000250: d0fc 68bd 206a dc3c 1308 34bd 003e 1b3d
00000260: 8aa9 053d a8b3 af3d 7f2b dabd 467c 15bd
00000270: 9994 353e b3cc 8cbb 8a48 b53d 1870 e9bd
00000280: e81c 81bd 9360 b3bd cbac 163e 2192 6a3d
00000290: 25d3 d23c faee 413d 97d2 b2ba 73a3 79bd
000002a0: 3130 31bb 0463 2cbd bf27 f53c a02e cdbb
000002b0: 1e4d 40bd d8b6 833d fd7a 86be 4565 d4bc
000002c0: 55ab dabd dfbc cb3d beed 173e 3ef9 813c
000002d0: 5176 cb3d 65b7 063d e27f 4bbc 5263 b8bd
000002e0: 3bd5 f0bd 00ef 90bd 32d4 633d 96dc 333c
000002f0: d321 7e3c d9ae 65bc 2bba 97bd 3b23 51bc
00000300: c958 1ebc a76f cc3d 4883 9a3d 9569 8cbd
00000310: 0ca0 66bd 7dac a13d da5f 233d 6613 1a3d
00000320: 9a03 003e 1efa 423d a03e 3e3d 76c5 38bd
00000330: 9b1d 04bc 1794 acbb 582b ef3b cfd6 d53d
00000340: b25e f53d 4eed 223d 46ae 68bd e484 63bd
00000350: 5c2f 973c 23d0 8f3d 8714 cb3c 01cc d23d
00000360: c877 b1bc 418c 25bc 89fe a9bd 0f2d 093d
00000370: 7d4b 4b3d 6d09 e43d e320 283d 2d33 93bc
00000380: fc10 843c d183 36bd f688 1abe 6676 3bbd
00000390: 3ba7 55bd 036a fb3d 09dd 493c 055f 0b3e
000003a0: b827 c53c c524 3b3e f609 9dbd 2f11 36bd
000003b0: d5fb c93b 3b98 83bd 7eae 0d3d 2502 883d
000003c0: 76fa b1bd 555c 18bc 8118 e4bd 57d3 f0bd
000003d0: 2523 80bd 7a3f c33c 58a8 d5bc 10d5 51bd
000003e0: 72fa b83c 1247 d43d f673 b43b 3a6d 86bc
000003f0: 0503 a83d 1260 29bb 7418 253c d5b6 63bd
0.008964975 -0.0007640269 0.07312925 0.1474264 0.036652174 0.029154496 0.083251394 0.067837864
0.011335654 0.06669618 0.04167681 0.12834606 0.09947215 0.016409453 -0.08404727 0.0037352366
0.020499619 0.02401306 0.07476813 0.098103516 0.042229235 0.04200678 -0.0026379605 0.0011309943
0.039960504 -0.0539618 0.010932915 0.0833286 0.07956382 -0.060007013 0.10783736 0.056548327
0.06717539 0.12166739 0.050162245 -0.036890797 0.08341236 0.029428616 -0.063787594 -0.051976662
0.08050872 0.10510483 0.0009157894 0.007631516 -0.01870297 0.0548148 -0.007886731 0.08328063
0.039355833 0.03809008 -0.011951058 0.12058002 0.07401336 0.09955976 0.048618883 0.019741617
0.04091403 -0.11124427 -0.08274092 -0.059361216 -0.08903867 -0.006948619 -0.06155524 -0.04918601
-0.11604445 0.0048203603 0.014589036 -0.015441347 -0.017366692 -0.003119971 0.01856965 -0.05097524
-0.11731763 0.041198183 0.02834459 -0.06675889 -0.03771285 -0.053931694 -0.048019186 0.035043687
0.15478486 -0.107024014 -0.0034992695 0.042018767 -0.05710363 -0.03430729 -0.027326096 -0.112909056
0.049858525 0.031017037 0.13916335 0.039843034 -0.0020935577 0.066357724 0.14120555 0.025318956
0.17194957 0.06799956 0.08156574 0.051781733 -0.020499544 0.10744934 0.08365752 0.04643615
0.013378719 0.050086576 -0.043125775 -0.0746258 0.11944239 0.009704495 0.09201475 -0.10716539
-0.06981648 -0.08951206 -0.09397838 -0.16234192 -0.15239073 0.016493216 -0.056300256 0.018333506
0.07478203 -0.064200714 -0.08031062 -0.17175467 -0.06263691 -0.04839102 0.07403371 0.028171115
0.07683251 0.23572186 0.035262927 0.07178475 -0.0110797845 0.030893244 -0.024272913 0.2500729
0.014245962 0.068217605 0.11362883 0.046131287 0.08059207 -0.11755345 -0.021944402 0.07192569
0.18395789 0.037726812 0.119676284 -0.052939188 -0.056881726 0.026906073 -0.043953013 0.037900925
0.03263239 0.085791886 -0.106528275 -0.03649547 0.17732467 -0.004296863 0.08851726 -0.11398333
-0.063043416 -0.087586544 0.14714353 0.057268266 0.025735447 0.047347046 -0.0013643083 -0.060946893
-0.002703678 -0.042086616 0.029926179 -0.0062616616 -0.046948545 0.06431359 -0.26265708 -0.025927195
-0.1067721 0.09948134 0.14836785 0.015865918 0.099346764 0.032889742 -0.012420626 -0.09003319
-0.117594205 -0.07076836 0.055622287 0.010977885 0.015510994 -0.014018738 -0.074085556 -0.012764747
-0.009664723 0.099822335 0.07544571 -0.06856076 -0.056304976 0.07894228 0.039886333 0.037616156
0.12501374 0.04760181 0.046446443 -0.04511019 -0.008063699 -0.005266677 0.007298868 0.10441362
0.11980952 0.039777093 -0.056806825 -0.055546656 0.0184552 0.07022121 0.024790062 0.10292817
-0.021663561 -0.01010424 -0.08300502 0.033490237 0.049632538 0.1113461 0.04104699 -0.017968738
0.01612138 -0.044559304 -0.15091309 -0.04576721 -0.052161437 0.122760795 0.012320765 0.13610466
0.024066791 0.18275745 -0.076679155 -0.04444998 0.006164054 -0.0642552 0.034590237 0.06641034
-0.0869035 -0.009299357 -0.11137486 -0.1175906 -0.06256703 0.023833979 -0.02608125 -0.051228583
0.02258036 0.10365118 0.0055069877 -0.016409505 0.08203701 -0.0025844616 0.010076631 -0.055594284

network.2.conv1.bias f4 [64]
00000000: 4801 fcbd 68e1 30bc cee4 c3bd 7a7a cd3c
00000010: ba71 223d 1d4b 3cbd 25d8 ad3c 12e3 0cbd
00000020: 3afb 3bbd 135a f9bb 0285 0ebe 7778 8a3c
00000030: 787f ddbd f26e a43d d665 3f3c 6af9 23bd
00000040: 83f6 3b3b a86a a2bd 6857 4abd 4325 683c
00000050: c7c3 583c de3f a4bd 5ca8 683d b37a b5bd
00000060: 791f 89bd 4def 94bd 1e66 f939 b86d 883d
00000070: e030 cf3d 2a6c 4abd 0246 60bb c766 d43b
00000080: 544e c8bd 819f c7bc 5cb5 943c 6d24 dbbc
00000090: 7e91 cf3a d9b9 08bc c23a 053c 0cda ff3c
000000a0: 668f bd3d 9693 203c a3fa cabc e28b 54bd
000000b0: 9126 bdbd ed91 aa3c b2e3 9a3d 6e68 12be
000000c0: d8d9 12be 2f31 afbd edc2 d23b cbf5 a73d
000000d0: 43d6 ad3c 804f 6dbd 3e3a 113d 19f7 c73b
000000e0: 4495 113c 0b48 9abc fd09 9a3c 2c1c 57bc
000000f0: 82e5 b4bc f8d8 5d3d 0f85 bfb9 d9a4 463d
-0.12304932 -0.010795929 -0.095651254 0.025082815 0.03965924 -0.04597007 0.02122123 -0.03439624
-0.045893885 -0.0076096146 -0.13917926 0.016903145 -0.10815328 0.08028974 0.011681994 -0.04003278
0.0028680868 -0.07930499 -0.049399763 0.01416904 0.013230271 -0.08019994 0.056801185 -0.08861294
-0.06695456 -0.072722055 0.00047569064 0.06661552 0.10116744 -0.04941956 -0.0034221415 0.0064819786
-0.09780565 -0.02436805 0.018152885 -0.026750768 0.0015836207 -0.008345091 0.008131685 0.031231903
0.09255867 0.009800812 -0.024777716 -0.051891215 -0.092358716 0.020821536 0.07562961 -0.1429765
-0.14340913 -0.08554303 0.0064319284 0.08201178 0.021220332 -0.057937145 0.035455935 0.0061024544
0.008885685 -0.01883318 0.01880359 -0.013129275 -0.022082094 0.054161996 -0.00036529495 0.048497055
