MediaPipe Hands Interface/Old TCN Files/tcn_gesture_model_best.pth (torch, 319677 bytes, 16 tensors)

network.0.conv1.weight f4 [64, 63, 3]
00000000: 25e9 adbd bc2e 72bd 9918 843c baf3 8a3d
00000010: 7842 acbd d71e f33c 1ec7 753d 662d 2f3d
00000020: ff5b 32bd a2b2 e5bc 546d 33bd 6dec 7d3d
00000030: e297 c53c 41d1 bd3a fe93 ea3c f152 54bd
00000040: e3f0 81bd d423 a33b 6604 513d 3da1 3a3d
00000050: ff95 df3c 3c01 903d d51e 8abb 49c1 05bd
00000060: d61a 72bd db1d 8abd b299 a53c aa32 c23c
00000070: 7d92 10bd 7021 97bc bf31 673d fbf7 393d
00000080: e821 823d ffcf a23c 54e1 4fbd 4ed8 4c3b
00000090: f7dc 17bd 3369 09bd df06 003d eef8 7d3d
000000a0: e5f9 87bb 68d3 de3c 0c7e b9bc 921b 92bd
000000b0: 7ce3 543d d008 f33c bebb 923d 53e0 27bc
000000c0: 5c42 d43b 2ac5 173d d993 983d e713 693d
000000d0: e607 9f3d 7b3e 833c c629 1d3d d61d 233c
000000e0: 2355 1bbd 9344 a2bd ed8d 9fbd 278a 0fbd
000000f0: 2a3f f1bc bb0f 6a3d 959b 6b3d 33e2 f6bc
00000100: 4d29 4cbd 3a89 4939 eafb 67bc e75b 7fbc
00000110: e466 4b3d ca6b 0e3d 1d30 a03d 44f9 be3d
00000120: b490 523c 64e5 823d 27e5 c7bc 2702 7b3d
00000130: e9b4 1e3d 3398 77bd d514 683c 5bd8 3cbc
00000140: bbdd a9bc 9801 163d ed3f 743d 8b64 10bc
00000150: 3f85 a83b e6c2 5dbd d6be 2f3d d3bf 0b3d
00000160: afb0 963d f3de 813d 2f9c bcbc e791 123c
00000170: dd62 9ebd a312 b9bd b4f8 b3bd 6bf1 18bd
00000180: d9a4 a43d 0349 2c3d f7ea 3b3d 924c 1ebc
00000190: 8fc7 d1bc 69c2 693d 456e 243d 39ec 9abd
000001a0: 5447 04bd 2e39 9f3d 8631 4dbd 129e 613d
000001b0: 3508 153d 130f 33bd 5f52 523d 0584 aa3c
000001c0: 4d77 e9bc 889e 063d a756 b8bb e746 d9bc
000001d0: d67b f0bc b488 0cbd dd74 663d 1b42 8abb
000001e0: 5988 b93b 133a 9ebd eb91 5ebc e636 2f3d
000001f0: 515a 8e3d a483 c4bc 83ea 943d cab0 453d
00000200: 083d 43bd 280a d3bd 7499 c3bd 76ec 8f3c
00000210: 8cea 873d 3664 7f3d b347 983d 04d9 12bd
00000220: dbbb 8abd 2812 9b38 9d6c e4bd bb11 98bd
00000230: ef7b b7bd 4ac6 f13b 2fd1 2d3c e0e7 143d
00000240: 9927 ce3c 1566 d83c ba6c 1ebd 23ef 003b
00000250: f6d6 14bd e1b0 ffbc 31c4 5dbb 529a 783d
00000260: c62f 98bd 4941 74bd 9f70 9e3c 322d 0ebd
00000270: 56c8 9abc aff8 72bc 2090 733b fbf8 f33b
00000280: 883b 873d 23c4 a63c 2eb1 91bc 5dcc 083d
00000290: 27c2 aabc b888 afb9 ff56 babd b2e4 69bc
000002a0: 3632 74bb 5cd6 08bc 10b3 a8bb 62f1 24bb
000002b0: 3b0b 87bd 3fd7 92bd 5be9 a5bd bb3b 9e3c
000002c0: 9a06 f13c bfde 313b 2a15 6abd 9c73 45bd
000002d0: e6e0 683d 18c2 e33c 3e35 f0bc e808 87bd
000002e0: 7542 94bd b68c 07bd 3b8f f63c 8f25 24bc
000002f0: 2273 853b fe9a eb3d b698 54bd 39ff a73d
00000300: fdcc 9e3c 852e 883d 202e b1bc 9afe ac3d
00000310: 014b da3d afab 103d 9c84 2abd 61d8 e8bb
00000320: f694 9f3c a56d 25bd 7be4 073c 5205 86bd
00000330: 8aff 68bd 26b1 fa3c 71c2 a6bd 52c8 1cbd
00000340: 3ebb 863d 1c57 483d 37fc 9bbd 9a09 52bd
00000350: b965 ebbd d1bd a33c db8c 9cbd 4445 8abd
00000360: f3d9 30bd 2038 73bd 6013 1d3d da58 1cbc
00000370: a47e d53a 401b 9abd 2088 923c be74 5ebd
00000380: 1e2b d0bd 0811 a53c 75c1 223d c3a9 fa3c
00000390: e3d2 89bc 4d18 abbd 0e93 b9bd 8cb9 4fbd
000003a0: fcc3 88bd 51d5 5bbc 5e2a 5cbc f4c0 453d
000003b0: fac9 683d 375b 34bd b351 b9bd 3ac5 69bc
000003c0: 823f 19bd fc62 bfbd 10d2 043c 9c2f fabc
000003d0: 156a 1a3d 0c76 333d 8ba1 993c 6a9b 993c
000003e0: 26e5 293d 2199 d2bd d068 4fbd c871 42bd
000003f0: d9ac 08bd 9873 79bd edb4 3fbc a80d 793d
-0.084917344 -0.0591266 0.01612501 0.067847684 -0.084111154 0.029677792 0.060004346 0.042767905
-0.043544766 -0.02803928 -0.043805435 0.06199305 0.024120275 0.0014481918 0.028635021 -0.05183691
-0.063447736 0.0049786363 0.051029585 0.045563925 0.027293203 0.070314854 -0.0042151012 -0.032655034
-0.059107624 -0.06743976 0.02021489 0.0237058 -0.035295952 -0.018448561 0.056443926 0.04540251
0.06354123 0.01987457 -0.050752 0.0031256857 -0.037075963 -0.03354759 0.031256553 0.062004976
-0.004149663 0.027200416 -0.022643112 -0.07134165 0.05197476 0.029667288 0.07164715 -0.010246354
0.006477637 0.037053265 0.07450075 0.056903746 0.077651784 0.016021004 0.038369916 0.009955844
-0.03792299 -0.07923236 -0.07790742 -0.03504386 -0.029449064 0.057143908 0.05752142 -0.030137157
-0.049844075 0.00019219975 -0.014159182 -0.015585876 0.04965867 0.034770764 0.07821677 0.093248874
0.012851883 0.06391409 -0.02440126 0.06128135 0.038746748 -0.060447883 0.014165123 -0.011526193
-0.020735612 0.036622614 0.059631277 -0.008813034 0.0051428373 -0.054140948 0.042906605 0.034118485
0.073579185 0.06341352 -0.023023693 0.008945919 -0.077337004 -0.09036758 -0.08787671 -0.03733961
0.08039255 0.042061817 0.045878377 -0.0096618105 -0.025607852 0.05707017 0.040144224 -0.07564587
-0.032294586 0.07774578 -0.050096057 0.05508239 0.03638478 -0.043715548 0.051348086 0.020814905
-0.02849927 0.03286603 -0.005625564 -0.026523067 -0.029355925 -0.034310058 0.056263793 -0.004219306
0.005662006 -0.077259205 -0.013584594 0.042776965 0.0695082 -0.023988552 0.07271292 0.048264302
-0.047665626 -0.103046715 -0.09550753 0.017568808 0.06636533 0.062351428 0.074355505 -0.035851493
-0.06774112 7.394358e-05 -0.11153529 -0.07425257 -0.08959185 0.007378374 0.010608955 0.036353946
0.025165366 0.026415864 -0.03867791 0.0019673787 -0.036337815 -0.031212272 -0.0033838863 0.060694046
-0.07430987 -0.059632573 0.019340811 -0.03471107 -0.018894356 -0.014829799 0.0037164763 0.0074454523
0.066031516 0.020357197 -0.017784681 0.03339802 -0.020844532 -0.00033480464 -0.090986244 -0.014275717
-0.0037261373 -0.0083518885 -0.005148299 -0.002516829 -0.06593939 -0.07169961 -0.0810115 0.019315591
0.029422093 0.0027140824 -0.05714909 -0.048205957 0.056855105 0.027802512 -0.029322263 -0.065934956
-0.07239238 -0.033093177 0.030097594 -0.01001872 0.004072563 0.11504172 -0.05190345 0.08202977
0.019384855 0.06649498 -0.02162844 0.08446999 0.10658837 0.03531998 -0.041630372 -0.0071058725
0.01948021 -0.04038777 0.00829422 -0.065439835 -0.056884326 0.03060205 -0.081425555 -0.038276978
0.06578682 0.0489112 -0.076164655 -0.051278688 -0.114940114 0.019987972 -0.076440535 -0.067514926
-0.043176603 -0.059379697 0.038348556 -0.009542668 0.0016288352 -0.07524729 0.017887175 -0.054310553
-0.10164474 0.020149723 0.039735276 0.030598527 -0.016824191 -0.083542444 -0.090612516 -0.05071406
-0.06678006 -0.013417558 -0.0134378355 0.048279718 0.056833245 -0.0440323 -0.09048786 -0.014268214
-0.03741408 -0.09345052 0.008106723 -0.03054028 0.037698824 0.04381375 0.018753788 0.018750865
0.0414783 -0.10283113 -0.050637066 -0.04747179 -0.033367965 -0.060901254 -0.011700851 0.06080404

network.0.conv1.bias f4 [64]
00000000: 6a64 783d e6f1 183d 9290 f13c ba8a a33a
00000010: 2b87 d7bc d3c5 29bd e9ab 13bd a511 1cbd
00000020: 5f34 3b3d 9231 3abd 87e2 0a3d 12e3 dcbc
00000030: 55b7 52bc 11a7 d5bc 3c3f 84bd af02 123d
00000040: 97fe 943c 8f11 16bd aca2 fa3c 922e 183d
00000050: 1c78 ca3c 6792 75bd 61a9 02bb 67d1 43bd
00000060: af92 d93c 8faf 783d aa50 013d ce35 9f3d
00000070: 8315 63bd c3f0 323c 4f3e 383d b1e4 9b3c
00000080: e456 633d 0ee2 29bd 2c8c fe3b d42e 77bd
00000090: 3efc 84bd 6ab9 933c eb42 f43c a4c8 3cbd
000000a0: 58ad 463c 2041 423d e35b 243d 3f79 a2bc
000000b0: 093d 38bb 5972 7e3d 6203 1abc 1b1f a0bd
000000c0: aa03 ca3b 3e26 95bd f5c8 203d a221 62bd
000000d0: 8d32 163d 5a99 833d cac1 823d d9db aebc
000000e0: 976e cf3c fe98 34bd 4ea4 703c 947f 9dbc
000000f0: eb13 aebc ffed 7f3b 20ab 8abd 7799 8bbc
0.060642637 0.037340067 0.029487882 0.0012477257 -0.02630957 -0.041448426 -0.03605262 -0.038102765
0.04570424 -0.04545743 0.03390744 -0.026963744 -0.012861093 -0.02608064 -0.064573735 0.03564709
0.018187804 -0.03663784 0.030595146 0.037153788 0.024715476 -0.059954073 -0.0019937383 -0.047807124
0.026559202 0.0607143 0.031571068 0.07773934 -0.055440437 0.01092166 0.044981297 0.019029947
0.055502787 -0.04147535 0.0077681746 -0.060347393 -0.06493424 0.018032748 0.029817065 -0.046089783
0.012126289 0.04742539 0.040126693 -0.019833205 -0.0028112552 0.06212077 -0.009400221 -0.07818433
0.0061649876 -0.07282685 0.039254148 -0.055207856 0.036669303 0.06425734 0.063846186 -0.021345066
0.025321288 -0.044091217 0.014687611 -0.019225873 -0.021249732 0.0039051769 -0.06770921 -0.017040951

network.0.conv2.weight f4 [64, 64, 3]
00000000: d055 16bd d976 753d ae7d 91bd 01e7 4b3d
00000010: 7da3 2d3d 28ec bebb 2514 41bd fd2a 63bd
00000020: b14f 51bc 9690 5c3c 31c4 333d ca3f 743d
00000030: 1000 b8bb 8099 30bd 6519 50bd 8d0a 893d
00000040: c9a6 87bd 1858 f0ba e0a0 78bd 565d 993c
00000050: 9f48 4b3d 2850 5cbd e14d 363b a161 43bd
00000060: b377 6f3d 3a64 873b 5524 34bc 53ac 3bbd
00000070: 8bde 8bbd bd49 3c3d 2cd2 82bd fd77 c33c
00000080: 83a0 9d3d 8457 91bd eb94 503d 281e 7abd
00000090: 7346 8abd 5915 78bd 4032 003d 1bac 613d
000000a0: 406b 96bd 90f6 ccbc bbdf acbd 0794 f3bb
000000b0: 2a3a aabd 0a4a 333d 17db c0ba a6f1 1cbd
000000c0: 9f33 df3c 056f 583c 1990 48bd 9195 e3bc
000000d0: 9fcd 9d3a ece1 433d 3142 353d 3bee ac3b
000000e0: 74d0 7f3d dd26 46bd 56cb 093d 7946 8c3c
000000f0: 3504 1bbd 2035 3d3d b04d 87bc cc18 95bd
00000100: ef62 693d d631 1dbd 8771 8e3d 5bdb 173d
00000110: c167 cebc d618 c8ba 3542 173d 3fc2 a43d
00000120: d0d2 18bd e26a 5fbd 55fd 523d b299 833d
00000130: 7fce 813d aac6 3dbd fe74 ba3c ee3e e1bc
00000140: ce02 573d 3d39 2f3d 7bea 4ebd 2d0c edbc
00000150: 6db6 b5bb 3069 9b3c cfbf 41bc d142 65bd
00000160: a440 4f3d 9a5a 7abc 6e93 adbc cf66 33bd
00000170: 7572 55bd 35fe 14bd c175 803d 2979 da3c
00000180: cfd3 ac3c de28 82bd 7320 843d 579c b6bd
00000190: 4212 9cbd e8ea 26bd 3b2d 903d e145 6c3d
000001a0: ed15 0cbd da4c 12bc 7b0b bebc 7a85 7d3c
000001b0: d9de 89bd 915a f4bc 9525 373d a7f1 103d
000001c0: 50f0 a1bd 0b2d cbbc 6d8c 11bd a3e6 86bd
000001d0: 3344 9dbd ff85 2b3d 7f89 803d 56f3 3cbd
000001e0: 99ef 2bbd d86a 20bd ff86 62bd a8ac d2bc
000001f0: d295 ff3c 0e78 603d 334b 583d 669a 103c
00000200: 52ad 033b 4fe4 95bd bc6c 37bd 488e b1bd
00000210: 4459 923d e26a 4e3d 9383 7b3d 8b46 843d
00000220: 64cb 653d 7d60 113b 1d33 573d e2ca 0c3d
00000230: a8b5 afbb 69b2 40bd 3f15 1bbd 3ffa 853d
00000240: 0c7d 5c3d 233a 663d 39c4 6b3d ce79 78bd
00000250: 5871 223c 61c2 faba 00ee c83c 9e7c 323d
00000260: cdc5 9dbd 0a7b 89bd 5b25 be3c ebcf f63c
00000270: a801 ad3c 48fa e5bc eaca babc c601 a8bd
00000280: e1ec 4b3c 8fe4 c9bd 1ec6 a0bd cbe9 afbd
00000290: 49c1 8cbc 9a2f 533d 835c 9cbd 3fbc 6c3d
000002a0: 00d2 193d 15cd 95bd 9598 adbb ac6f 77bd
000002b0: d7c8 12bc 5d5c 7a3d 5abd be3b 104f 89bd
000002c0: ae28 863d 7313 6ebd af47 7f3d 648b 00bd
000002d0: a10d 0cbd 1070 90bd a2a9 3a3d ba91 45bd
000002e0: 96d7 85bd 49e1 c23c 5851 9bbd 7154 463d
000002f0: b564 843d c68f 96bd 01a9 88bd d7d6 97bd
00000300: 66c1 7dbd 32d9 163c e2c4 9ebc bd2f 803d
00000310: 36f6 903d bf48 b9bc 64ff e5bb a7e1 3dbc
00000320: a88d 283c b16b 833d 385b 4ebc bf83 933d
00000330: 28ff 95bc b1cf a53d 6a6a c63c 5a78 76bd
00000340: 36e0 b33d 917d c03b e878 973d ef5c 7bbd
00000350: d380 16bd 1496 5cbd f076 4abd 6076 713b
00000360: 2695 4e3d d962 fe3c aeca 57bd 188e 9c3d
00000370: e905 d23c 80df 0c3d 3a33 113d 5dbb 4f3d
00000380: 0b65 ed3c 0a0e aebd 7d44 9c3c a1b3 213d
00000390: b349 00bc ec0f 9fbd e38a b93c 6660 1f3d
000003a0: e8b8 84bd b2e5 213d c02b 313d 0991 6dbd
000003b0: 2f14 193d 778b 8f3c 44f1 7bbd fc43 2abd
000003c0: 7402 97bd 1cda 9e3c fe0a a4bd 21b1 4ebc
000003d0: fbb8 713d ee63 d0bb 9762 203d 8615 923d
000003e0: 5c63 95bd f25c 64bc ba27 85bc 863f 93bd
000003f0: 6449 48bc 1c38 eebb 6caf 4e3d 3840 f83c
-0.03670293 0.059927795 -0.071040496 0.04978085 0.042392243 -0.005826492 -0.047138352 -0.05546092
-0.012775348 0.013462206 0.043888275 0.059631146 -0.005615242 -0.04311514 -0.050805468 0.066914655
-0.066236086 -0.0018336801 -0.060700297 0.018721264 0.049629804 -0.05378738 0.0027817416 -0.047700528
0.058463763 0.004131821 -0.01099499 -0.045818638 -0.06829556 0.04596876 -0.06387743 0.023860926
0.07696631 -0.070967704 0.05092327 -0.061063915 -0.06751718 -0.060567234 0.031297922 0.055095773
-0.07344675 -0.025019914 -0.08441111 -0.0074334177 -0.08311875 0.04377178 -0.0014713731 -0.03831639
0.027246295 0.013210063 -0.048965547 -0.02778128 0.0012039429 0.047822878 0.04425258 0.0052774227
0.062454656 -0.048376907 0.033641182 0.017123448 -0.03784581 0.046193242 -0.016516536 -0.0728012
0.056979116 -0.038377605 0.06955247 0.037074428 -0.025195958 -0.0015266191 0.036928374 0.08044862
-0.03731042 -0.05454529 0.051511128 0.064257994 0.06338214 -0.04633204 0.022760864 -0.027495828
0.05249291 0.042779196 -0.050516587 -0.02893647 -0.0055454285 0.018971056 -0.011825516 -0.055971924
0.050598755 -0.01528039 -0.021188464 -0.043799218 -0.052111108 -0.036375243 0.0627246 0.026669102
0.021097092 -0.06355451 0.06451502 -0.08916538 -0.0762067 -0.040751368 0.07039877 0.05768383
-0.034200598 -0.008929456 -0.023198834 0.015473718 -0.06731958 -0.029828342 0.044713575 0.035386708
-0.07907164 -0.024801752 -0.03553431 -0.06586959 -0.076790236 0.041875836 0.06276225 -0.0461305
-0.041976545 -0.039164394 -0.055304524 -0.025717095 0.03119937 0.054801993 0.05280609 0.008825874
0.002009232 -0.07318937 -0.04478143 -0.08669716 0.07145932 0.0503949 0.061404776 0.064587675
0.05610217 0.0022182756 0.05253898 0.03437317 -0.0053622313 -0.047045145 -0.03786206 0.06541871
0.05383019 0.056207787 0.05756018 -0.060663037 0.009914719 -0.0019131416 0.02452755 0.043575875
-0.07703743 -0.06712921 0.023211172 0.03012844 0.021118954 -0.028073445 -0.022801835 -0.08203463
0.012446613 -0.09858047 -0.07850288 -0.08589514 -0.01718201 0.05155907 -0.07634833 0.057796713
0.037553787 -0.07314507 -0.00529773 -0.060409233 -0.008959017 0.06112324 0.0058209123 -0.06704533
0.06550728 -0.058124017 0.062324222 -0.031382933 -0.034192685 -0.07052624 0.04557193 -0.04823468
-0.065352604 0.023789065 -0.075838745 0.048420373 0.06464521 -0.07351641 -0.0667286 -0.07414024
-0.061952017 0.009207057 -0.01938099 0.06259105 0.07078211 -0.022617696 -0.0070189703 -0.011589444
0.01028768 0.06417025 -0.01259499 0.07202863 -0.018310145 0.080962546 0.024220664 -0.06017337
0.08782999 0.0058743437 0.07396108 -0.061367925 -0.03674395 -0.053854063 -0.049429834 0.0036844239
0.050435208 0.031052994 -0.052683525 0.0764429 0.025637584 0.034392834 0.035449244 0.050715793
0.028978845 -0.084987715 0.019075627 0.039477948 -0.007830071 -0.07766709 0.022649234 0.038910292
-0.064805806 0.039525695 0.043254614 -0.057999644 0.037372764 0.017522557 -0.061509386 -0.04156874
-0.07373515 0.019391112 -0.08009909 -0.012615473 0.0590143 -0.006359569 0.039156523 0.071330115
-0.07294342 -0.0139381755 -0.016254295 -0.071898505 -0.012224529 -0.0072698724 0.050460264 0.03030406

network.0.conv2.bias f4 [64]
00000000: 6428 adbb e767 8bbd 4da7 4c3d a80c 5f3c
00000010: b8ae 863d c6f6 c0bd 053a 7dbd 6478 f93c
00000020: 5f08 113d b725 22bc 6c2e 82bc 9713 9ebd
00000030: c696 b63c f117 b6bc 7569 763d e1a2 67bd
00000040: dc21 9abd b262 3e3d 8ffb ae3d e7c0 4dbc
00000050: 0b63 303d 250e 1bbd 0ef9 a1bc 76a1 113c
00000060: 7bcb 51bc 9236 333d 40a2 8abd a321 173d
00000070: 8777 643d 4f38 05bd 7ffb f2bc 139e 9e3d
00000080: cc36 71bb d264 18bd 714f a43c b4a5 4abd
00000090: e829 58bd 38ca 6abd 4b46 f03c fb41 3cbd
000000a0: fcdb 923d 8541 20bd f6fc 243d a50e 473d
000000b0: 036d 2fbd bc9e 65bd f987 58bd 95f8 003d
000000c0: e035 a939 c2ad f4bc 128c 91bd 74b7 b1bc
000000d0: a1d5 823d 9762 46bd 0587 0f3d 91b0 003d
000000e0: d028 23bd 4dde 92bd ee22 a8bd 61ee 22bd
000000f0: 5486 543b f575 4e3d 42a8 12bc f3b0 893d
-0.005284356 -0.06806927 0.049964238 0.013613857 0.06576294 -0.09422068 -0.06182291 0.030452915
0.035408374 -0.009896687 -0.015891276 -0.0771858 0.022288691 -0.022228213 0.060159165 -0.056551818
-0.075259894 0.046480842 0.08544075 -0.0125581985 0.043063205 -0.037855286 -0.019772079 0.008888593
-0.012804861 0.043753214 -0.06769228 0.036897313 0.055778053 -0.032524403 -0.029660938 0.07744994
-0.0036806343 -0.037205525 0.020057412 -0.049474433 -0.05277434 -0.057321757 0.029330393 -0.04596136
0.07170865 -0.039124984 0.040280305 0.04859795 -0.04282857 -0.056059584 -0.05286405 0.031487066
0.00032274332 -0.02986801 -0.071067944 -0.021693923 0.06388403 -0.048433866 0.035040874 0.031418387
-0.039833844 -0.07171307 -0.08209787 -0.039778117 0.0032428699 0.05040546 -0.008951249 0.067232035

network.0.downsample.weight f4 [64, 63, 1]
00000000: 6c9e ef3d 1994 0cbd ddca 8ebd 1fea ec3d
00000010: 2684 63bc 1d80 6b3d e14e e13d 885f 73bd
00000020: 1fbc c9bc 1410 f83d bc17 d43d eb60 bb3d
00000030: d4b2 133e 021f c03d 8def cdbc eb3e acbd
00000040: e83a a5bd ca5f 8dbd b57d 243d 26cc cebd
00000050: 18e4 8dbb 8568 8d3d 75c6 9d3c 6807 87bc
00000060: b4fd b2bd d8d2 f7bb da6e 5b3d bd37 0cbe
00000070: c3fa 10bb f6f4 ccbd 49a4 b1bd eacd 8ebd
00000080: 7cb9 913c a211 ea3d 3e63 8cbc 63e2 ac3c
00000090: b189 14bd b17c 3bbd f95a 35bd 0d72 c53c
000000a0: 4758 b2bc 6b94 88bd c05d 823d a947 ff3d
000000b0: 4233 2a3d 353c f9bd 158b 873d 55c6 003c
000000c0: 67b1 bdbd ba68 ad3d a088 a73d 4f9e ef3d
000000d0: 590d 193c 2a89 a23c 6047 a6bd 848e 8c3d
000000e0: 7649 d7bc 7d20 a7bd aa0f 76bc 9305 033b
000000f0: 7896 dfbd 1937 e13c 8ac4 04be 0321 b03d
00000100: 2b6a 903d 8eca 94bd f022 463c bf0d 04be
00000110: f337 d5bc 903b 75bc d299 933d 6861 82bd
00000120: d7e0 55bd 1dec a4bd c959 923d dae0 453a
00000130: e333 92bd 7670 e2bd fb8b 203e cba3 58bd
00000140: 4659 643d d88f 273d e7c1 02bd 7d22 95bd
00000150: a09f 9fbc 0d6e b3bd 92c3 d3bd 3d98 013e
00000160: 4fcf 1ebd 8f1b f43d 4b83 e33c 5ab3 11bd
00000170: ff70 88bd db34 28bd fcbe c1bd 3b40 683d
00000180: a97e e63d 727c 583d 439e f2bc 05e7 d1bc
00000190: 2ac7 33bb 6581 09bd 838d 11bd 8029 6e3d
000001a0: 95b8 f8bd 8dd2 063e 63d4 473d 886a 0a3d
000001b0: 7433 b13d 6a49 78bd fbe5 ab3d f517 e83c
000001c0: 45ff dd3d 3180 0b3d 9d63 153e 249e 283e
000001d0: 2400 e23d d033 d63d a02c d73d b33c 003e
000001e0: c0bd 763d 1839 873d c3a4 6dbd d49d cfbd
000001f0: be02 da3d 639c 4b3d 73e7 9bbd 00f7 2635
00000200: 400b 01be c568 b3bd de02 933d 6464 a23c
00000210: 9f1b efbd 9940 f03d 4f6b cebc 4ce6 083d
00000220: ec1d 9e3d 5231 70bd 31cc ad3d ad5b 9c3a
00000230: 8fcd c6bc 2bb6 90bd 4b6f 54bd 616a b63d
00000240: 9e27 3b3d fe5a 033e 7872 363d 97b1 9cbc
00000250: f3c5 193d 70b2 08bd 6f52 babc 3a91 92bd
00000260: 8adc a7bd 17fd e3bc a420 c4bd a150 153e
00000270: a866 fb3b 9257 d8bd be17 e53b baf0 943d
00000280: 8ff9 fbbd 1200 b23d 69d8 113d 6761 523d
00000290: 3b47 36bd 80b8 35bd 5878 0cbe d1fc 233d
000002a0: c0f0 633b b72c 77bd b1ad 993d 6d7c 86bd
000002b0: 65ce 5b3c 6b9a 873d d5d7 8abd b7f0 723d
000002c0: 6eda 62bd 144d f1bd b7ac 0e3c 73b3 51bc
000002d0: 91d3 8dbd 4b97 79bc 2c2e 0bbc f7cd d53c
000002e0: b6fc a7bd c1ec 2d3c 97d0 bfb9 1c55 c93d
000002f0: 03a1 c2bd 849e b4bd 32f2 70bd 10fb 43bb
00000300: 0557 473d 7ef5 21bb 8ab1 a7bd 2329 09bc
00000310: 189b b63d 4454 aa3d 1f86 9fbd 6825 babc
00000320: 005a 403d 38d4 4e3d f79f 03bd 7fc9 89bc
00000330: d6d8 bcbd 1759 943d 36cd 233d 36c9 b73d
00000340: dd25 d3bd 0229 f23b 2981 163d 14cd 30bd
00000350: c8e3 c13d c577 bd3d d30a 93bc 0744 70bc
00000360: f8cf a5bd 79c2 183d a803 1e3e ce4a c53c
00000370: 4d6c 15be 59b4 ea3d bc8a f0bd f0f4 553c
00000380: 70ef 053d c11d 9fbd 708f 02bd b0b8 d83d
00000390: 5a56 afbd 63c2 9ebc a673 b7bd 0144 dbbd
000003a0: 6255 87bc fe46 863d ff50 e1bd 2028 06bd
000003b0: bcf0 293d a684 62bd f548 0e3d 8f90 213d
000003c0: 7bb5 cc3d ac40 9bbd 0bb5 83bd 0e40 85bd
000003d0: ab51 debd 0e05 3f3d 94af 6d3c 33d1 903d
000003e0: 7ac4 c8bd 835e bd3c 1f04 bb3b 6a71 c13c
000003f0: 3284 153d 2a1e 34bd c7bb 803d a5d8 80bd
0.117001384 -0.034320924 -0.06972287 0.115680926 -0.013886487 0.057495225 0.11001373 -0.059417278
-0.024625836 0.12112442 0.103560895 0.09149345 0.14423686 0.09380914 -0.02513864 -0.08410438
-0.08067876 -0.06903036 0.040158946 -0.10097532 -0.0043301694 0.06904701 0.01925967 -0.016483024
-0.08739796 -0.0075629763 0.053572513 -0.13693137 -0.0022122122 -0.1000766 -0.08673913 -0.06972869
0.017788641 0.114291444 -0.017137166 0.021104043 -0.036264125 -0.045773212 -0.04427621 0.024102235
-0.02177061 -0.066689335 0.06365538 0.1246484 0.04155279 -0.12169687 0.06618325 0.007859786
-0.092623524 0.08467241 0.08180356 0.11700117 0.009341561 0.019840796 -0.081190825 0.0686312
-0.026280146 -0.081604935 -0.015018383 0.0019992336 -0.109173715 0.027492093 -0.12965599 0.086000465
0.070515 -0.07265197 0.012093291 -0.12895869 -0.026027655 -0.014967814 0.07207073 -0.06366235
-0.052216377 -0.080528475 0.071460314 0.0007548459 -0.07138803 -0.110566065 0.15678398 -0.05289058
0.0557492 0.040908664 -0.0319232 -0.07281969 -0.019485295 -0.08761225 -0.103400365 0.1265573
-0.038771924 0.11919319 0.027772566 -0.035571434 -0.06662177 -0.041066032 -0.094602555 0.05670188
0.11254627 0.052853055 -0.02961648 -0.025622854 -0.0027431943 -0.033570666 -0.035535347 0.058145046
-0.12144581 0.13166256 0.048786532 0.033793002 0.08652392 -0.060616888 0.08393475 0.028331736
0.108397044 0.0340578 0.1458878 0.16466576 0.11035183 0.10459101 0.105065584 0.12523155
0.060239553 0.06602687 -0.058018457 -0.10137525 0.10645054 0.04970969 -0.07612505 6.219925e-07
-0.12601948 -0.087602176 0.07178281 0.01982326 -0.1167519 0.11731071 -0.025197653 0.033422753
0.07720551 -0.058640786 0.08486212 0.0011929177 -0.02426794 -0.07065996 -0.05186395 0.08907009
0.04569208 0.1282768 0.04454276 -0.01912765 0.037542295 -0.033373296 -0.022744386 -0.07156606
-0.08196361 -0.027830644 -0.09576538 0.14581539 0.0076721497 -0.10563578 0.0069913557 0.072724774
-0.12303459 0.0869142 0.035606775 0.05136242 -0.044501524 -0.044365406 -0.13717782 0.040036026
0.003478095 -0.060345378 0.07503832 -0.06566701 0.0134159075 0.0662125 -0.06779448 0.059311595
-0.055384092 -0.117822796 0.008708171 -0.012799132 -0.06925119 -0.015233825 -0.008494895 0.026099188
-0.08202498 0.010615529 -0.0003658577 0.098306865 -0.09503367 -0.08819297 -0.058824725 -0.0029904284
0.048666973 -0.0024712975 -0.0818816 -0.008371624 0.089163005 0.08316854 -0.077892534 -0.022722915
0.04696083 0.050495356 -0.032134976 -0.016819714 -0.09221046 0.07243555 0.039990626 0.08973925
-0.10309956 0.0073901424 0.03674427 -0.043164328 0.09467274 0.0925136 -0.017949497 -0.0146646565
-0.080963075 0.03729484 0.15431082 0.024083521 -0.14592095 0.1146018 -0.117452115 0.013058886
0.03269905 -0.07769347 -0.031875074 0.10582101 -0.08561392 -0.0193798 -0.08957605 -0.1070633
-0.016520206 0.065565094 -0.11001777 -0.03275311 0.041489348 -0.055302285 0.034737546 0.039444502
0.09995552 -0.075806946 -0.064310156 -0.06506358 -0.10855421 0.04663568 0.014507193 0.070711516
-0.098031 0.023116356 0.0057072784 0.02361365 0.036503024 -0.04397408 0.06285816 -0.06291322

network.0.downsample.bias f4 [64]
00000000: 5f58 5cbd cca6 90ba 7458 d03d a03a d33d
00000010: f62e debc 0e6f 2abd 5b97 c53d d84f 9a3c
00000020: 81ba db3c bfe0 a8bd ef8e 323d ca9e 58bd
00000030: 9843 2bbc 990f b0bd b839 babd 38c3 953d
00000040: eb9a 02bd 6aef d63c c399 9ebd bce9 cfbd
00000050: fba9 9fbd 9b18 97bd 74e8 2c3d 6027 ac3d
00000060: eecb ddbd 198f aabd 50cd c33d a68a a4bd
00000070: af6f 90bd 45e8 943d 55dc 173d 3f28 11bd
00000080: 8771 bfbc b3ae b6bd 0769 b4bb c72d cc3d
00000090: cf4a fd3d 021d 25bd c1a6 63bb 846a 993b
000000a0: 63a8 923d 41ff a1bd 4802 f23d d2d4 df3d
000000b0: 1b5c 953c 19b9 f7bc f647 1ebc d001 5f3d
000000c0: 334b a4bd 4686 1c3d 1944 e53d 03d6 d53b
000000d0: bb86 793d 64c0 49bd 269f 3ebd 226d 4c3d
000000e0: 8384 d3bd 4f98 e5bd 1ec9 9b3d 0523 59bd
000000f0: d3bb d03c 3ec7 85bd f3d6 85bd b8e3 a6bd
-0.053795215 -0.0011036037 0.10173121 0.10313916 -0.027122002 -0.041609816 0.096480094 0.0188369
0.02682233 -0.08245992 0.043593343 -0.052885808 -0.010453127 -0.08596725 -0.0909304 0.07312626
-0.031886023 0.026237208 -0.077441715 -0.10152003 -0.07796093 -0.0737774 0.042213872 0.08405948
-0.10829912 -0.08328075 0.095606446 -0.080342576 -0.07052552 0.072708644 0.03707536 -0.035438772
-0.023369564 -0.0892004 -0.0055056843 0.09969669 0.12367784 -0.040310867 -0.0034736844 0.004681887
0.071610235 -0.07910014 0.11816841 0.10929264 0.018232396 -0.030239629 -0.0096607115 0.054445088
-0.080221556 0.03821399 0.11194629 0.0065257563 0.060919505 -0.049255744 -0.046538495 0.049908765
-0.10328009 -0.11210691 0.076067194 -0.053011913 0.025480187 -0.06532143 -0.06535139 -0.08148903

network.1.conv1.weight f4 [64, 64, 3]
00000000: 8230 c039 b585 16bd 3990 fbbc cb4d 40bd
00000010: dddc 1c3d 7df9 84bc 1aa4 563d 3101 7e3c
00000020: 9b7e 9d3d a7e4 813d 3c59 5dbd ff50 b1bc
00000030: 8f5f 833d 5c79 f6bb c799 fabc 4eee 653d
00000040: b2f0 723c 6d7c 543d 092b de3c 560f 063d
00000050: 88d5 c93c 3642 2dbd af99 953d d04e 80bd
00000060: 4f39 843d 1d5c 1d3d 8260 89bd 63fd 9c3c
00000070: c6c5 bfbb 5a57 9c3c 3a39 16bd 0913 05bd
00000080: 8c02 67bd 9df1 243d a6e0 b9bc 469c 5bbb
00000090: a82a 02bc 9676 2fbc 2b87 693d 2601 333d
000000a0: bf9a 83bc c787 f2bb 610f 193d 79a0 84bb
000000b0: eae7 433d 1e27 8c3d aae4 533d f88d 213d
000000c0: 0686 87bb ddc9 81bc 461d 383b c51c ddbc
000000d0: 7581 27bd 379f 96bd d765 843d 830c 3dbd
000000e0: 1651 31bd e192 ddbc 8fc6 abbd fb9b 50bd
000000f0: 51b8 11bd 2e42 82bc b5cb 54bd ed80 02bd
00000100: 4bcc 4bbd 0b7a 663d fbc9 85bc 744e 0b3d
00000110: a37a 793c c014 de3c 4128 483d aa4f 65bd
00000120: 3852 22bd b31e 74bb 46ea 283d 0067 233b
00000130: 65ff 0fbc 3c9c be3c 4ddc 363d d805 c53c
00000140: d3cc babd 6f6f 9abc 03f5 1fbd 6a91 9fbd
00000150: aa1c 553d 97b3 30bd 634b 603d 04b0 973d
00000160: 2c9f 1bbd 6cec 0cbc 1cc8 543d 9a40 463d
00000170: 31fa 953c 7b9f d53a fe83 2abc e133 293d
00000180: 099f edbb 28ca a03d 1639 143d a649 25bd
00000190: c52f aa3c 63b4 513d 2df4 c1bd 0998 6dbd
000001a0: 7ce8 84bb 296b 01bd 7b05 9fbc 1007 00bd
000001b0: e5a9 57bd 52cb aabd 6d7f 393d 0f6a 563d
000001c0: e3ae 83bd aa15 47bd a048 aebc 5bc8 4bbd
000001d0: ab64 f7bb de33 883d c3f7 88bd 0dff cdbc
000001e0: 3796 87bb 9dc9 1d3d 1207 95bc c734 7cbd
000001f0: 9964 8fbc 7dc4 9ebc 7497 84bd 21b6 48bc
00000200: e664 043e 378e 363b 6eda 98bd 7452 05bd
00000210: b575 833d 7ac1 233d 8b67 8b3d 8403 ac3d
00000220: 9829 293d e042 35bd 424e 1d3d 1db4 0a3d
00000230: f3c3 a03d 3b48 00bd eb5c 053c fb59 87bd
00000240: c8e6 f6ba 67f9 4b3b 4138 9d3d c2a9 ef3c
00000250: 2019 81bd 488b e83c f893 8fbd 5fd3 afbd
00000260: 1c22 0ebc f34c 693d a1b9 4cbd 4c34 83bb
00000270: 6065 463c 04b2 4b39 98ae 97bd 7215 d1bc
00000280: 5ae5 d63b 5804 fbbc 332b 263d 3cb4 b13d
00000290: 60a8 00bd 3ec2 f53c fea5 633c 2b8c 91bd
000002a0: 6cf0 2abd b33c f3bc 100b 7f3d fdf9 0bbd
000002b0: 9144 88bd 2464 dc3c 02e8 593c c232 733c
000002c0: 2e40 4b3d 5fd4 9ebd 4341 ebbc fcbf 903c
000002d0: 6c8b 6d3d f9b1 903c 658c 1a3d 0989 f9bc
000002e0: f747 5bbb a67c 7e3d ff37 0fbd 2208 243b
000002f0: 3a4f 80bc 2dac 5b3d 8d3a eb3c ef7a 8f3c
00000300: cdbf 603c cc34 69bd 9a85 60bd 3ad2 13ba
00000310: 12a3 29bd 5fa7 dcbb d6ff f7bc 711c a63d
00000320: 0a5d b63c 8321 2fbd fe0e 783c 0472 05bd
00000330: b588 f9bc e238 60bd 0ca0 7d3c c46e 50bd
00000340: 4055 913d a62d c73c 7aae 343d eabf 413c
00000350: b51e 38bc 93d9 3f3d d19d 993d cab0 6e3d
00000360: 6492 b5bc a3c6 69bc 24ce 073d 1648 1e3d
00000370: 240c 8bbd f6fa 5dbd 415e 14bc 55ec b03c
00000380: 90a1 f03a 9b53 a9bc 2781 9abd 441f 8dbd
00000390: 3ecc 42bd fdb7 6c3d 482e bd3b c258 8f3d
000003a0: b136 b93d 46fa f5bb 30d7 df3c c240 8d3c
000003b0: 084d 593d 9f26 5b3c 9fa1 903d 4e12 1ebd
000003c0: ffed 2d3d 641b d5bd cd63 83bd dea1 423c
000003d0: 3e41 c3bd 1cfc 73bd 68b9 a4bc f61c 37bd
000003e0: 345f 8a3d 9844 e33d 46d5 2c3d e019 4bbd
000003f0: 2230 00bd c310 a63b 995f 7c3d 949b 2d3c
0.00036657235 -0.036748607 -0.03070842 -0.04694919 0.03829657 -0.016232247 0.052402593 0.015503214
0.07690164 0.0634244 -0.05404018 -0.021645067 0.06414711 -0.0075217914 -0.030590905 0.05613547
0.014827894 0.051876474 0.02712013 0.03272947 0.024637952 -0.04229947 0.073047034 -0.06265032
0.06456243 0.038417924 -0.067078605 0.019163793 -0.005852434 0.019084621 -0.03667567 -0.032488856
-0.056398913 0.040269483 -0.022690129 -0.0033509894 -0.00794474 -0.010709425 0.05701367 0.043702267
-0.016065 -0.00740144 0.037368182 -0.00404745 0.047828592 0.068433985 0.051731743 0.039442033
-0.00413585 -0.015843326 0.002809362 -0.026991257 -0.040894944 -0.073545866 0.06464737 -0.04615451
-0.04329022 -0.027047576 -0.083874814 -0.050930005 -0.03557617 -0.015900698 -0.051952083 -0.031861234
-0.049755376 0.056268733 -0.016331663 0.034010366 0.015226993 0.027109504 0.048866514 -0.055984177
-0.03962919 -0.0037249743 0.041239046 0.002493322 -0.008788918 0.023267858 0.04464369 0.024050638
-0.09121098 -0.018851964 -0.03905202 -0.077914074 0.05202929 -0.04314002 0.054759394 0.07406619
-0.037993595 -0.008601289 0.05194865 0.048401453 0.018307777 0.0016298139 -0.010407446 0.04130924
-0.0072516245 0.07851058 0.036187254 -0.04035344 0.020774731 0.05119742 -0.09470401 -0.05800632
-0.0040560346 -0.031596337 -0.019411793 -0.031256735 -0.05265226 -0.083395615 0.04528754 0.05234724
-0.06429841 -0.048604645 -0.021274865 -0.04975162 -0.0075498424 0.06650518 -0.06687882 -0.025146032
-0.00413778 0.03852235 -0.018191848 -0.06157377 -0.017504023 -0.019380802 -0.064742 -0.012250454
0.12929115 0.0027855763 -0.07463537 -0.032549337 0.06418935 0.039979436 0.06806859 0.08399108
0.041299433 -0.04425323 0.03840471 0.033863176 0.07849874 -0.031318884 0.008139829 -0.06608959
-0.0018837089 0.0031123997 0.07676745 0.029255752 -0.0630362 0.028386727 -0.07010645 -0.08585238
-0.0086751245 0.05695815 -0.049981717 -0.004004037 0.012109131 0.00019425905 -0.07406348 -0.025522921
0.0065581026 -0.03064172 0.04056854 0.08676955 -0.031410575 0.029999848 0.013894556 -0.07106813
-0.04173319 -0.02969203 0.06226641 -0.034173954 -0.06653703 0.02690322 0.013299944 0.014843645
0.049621753 -0.0775535 -0.028717643 0.01766967 0.05799429 0.017662989 0.037731547 -0.030460851
-0.0033459642 0.062130593 -0.03496551 0.0025029262 -0.015662778 0.053630996 0.028714443 0.017514674
0.013717604 -0.056935117 -0.054814912 -0.0005638931 -0.04141528 -0.0067338194 -0.03027336 0.081108935
0.022261161 -0.04275657 0.015140293 -0.032579437 -0.030460695 -0.054741748 0.015480053 -0.050886884
0.07096338 0.024313759 0.044111706 0.011825541 -0.01123779 0.046838354 0.07500804 0.058274068
-0.022164531 -0.01426855 0.033155575 0.038642965 -0.06789425 -0.054194413 -0.009055675 0.021597067
0.0018358696 -0.020669749 -0.07544165 -0.06890729 -0.04755806 0.057792652 0.0057733394 0.06999351
0.09043635 -0.0075066416 0.02732429 0.017242793 0.05305198 0.013375907 0.07062077 -0.038591675
0.0424633 -0.10405615 -0.0641552 0.011879412 -0.09533928 -0.059566602 -0.02010794 -0.044705354
0.0675644 0.110970676 0.04219558 -0.049585223 -0.031295903 0.005067916 0.061614607 0.010596175

network.1.conv1.bias f4 [64]
00000000: a54b b53c c4a3 193c 5e7e e5bb 10b9 993b
00000010: 44d1 4d3d 556b 3abd 28b1 7c3d 0a6c 493c
00000020: 81a2 1e3d 48ae d43c 1c48 5e3d a265 be3c
00000030: 9d19 0ebd d5f5 e4ba bcda 053d 944c 753d
00000040: dc90 8bbd 2b54 473c 8efd 013d a394 873c
00000050: 5885 22bd 78e7 3fbd 2a26 363d 7f90 593d
00000060: cdf7 9d3c 325f 603d ae49 52bd 021c 59bd
00000070: ae3f d9bb a6d1 803d accd 873c 93e1 263d
00000080: 4b6a dbbc 2f69 763d b3b3 253d 3136 d03b
00000090: be92 813d a6d6 cd39 47c6 79bd 2255 073d
000000a0: 19c7 793d 26ee 2cbc 2b93 66bd 8b76 6abd
000000b0: aff0 5a3d 1d0f 8b3b 15c5 f1bb ec17 813c
000000c0: 472f 73bb f07e 073b 4364 1e3c 6211 f7bc
000000d0: 918f 5f3d 6f75 c73c ca4d 26bb 2989 0c3c
000000e0: 6ed9 7bbd 1398 85bd 6feb 8f3c eec8 3d3d
000000f0: cee5 c5bc 8ab7 883d dbf2 003c 3576 4fbd
0.022130797 0.009377424 -0.0070035895 0.0046912506 0.0502484 -0.045512516 0.061692387 0.012293825
0.038729195 0.02596201 0.054267988 0.023241822 -0.034692395 -0.0017468283 0.032679304 0.059887484
-0.06814739 0.012166063 0.03173595 0.016550368 -0.039677948 -0.046851605 0.04446999 0.053116318
0.0192832 0.054778285 -0.051339798 -0.053005226 -0.0066299057 0.06289987 0.016577564 0.040742468
-0.026784083 0.060158905 0.040454578 0.0063541164 0.06326817 0.00039260573 -0.060980108 0.033040173
0.06098089 -0.010554826 -0.056292694 -0.057241958 0.05345219 0.004243745 -0.0073782303 0.015758477
-0.0037107037 0.0020675026 0.009667459 -0.030159656 0.054580275 0.024347989 -0.0025375956 0.008577623
-0.061486654 -0.065231465 0.017568318 0.0463342 -0.024157431 0.06675632 0.007870401 -0.05064984

network.1.conv2.weight f4 [64, 64, 3]
00000000: a70d a73d 8b34 843d 1927 373c a1af 5dbd
00000010: 38e9 233d 12bd ecbc 5f16 2c3d 6e08 5c3d
00000020: 4586 57bd 63d7 103d 9b49 c1bb 8280 2dbd
00000030: 5a83 953d 4530 bcbc 1de7 27bd 2bcf 91bd
00000040: 5925 cfbd 4b21 6cbc 1d24 82bd 411a 3e3d
00000050: c5d6 3d3c 1567 cb3d acb9 a8bb 55f2 ac3d
00000060: 1135 b13b 4f47 3e3c 0868 573d 172f 283d
00000070: b5a4 b0bc 556a 553d 1738 81bd fb79 aabd
00000080: 84fa d03c b42e 2bbb 6bc2 5239 3588 f3bc
00000090: 16fc 07bd 183c 63bd a6bf 533d ae3c 813c
000000a0: 5fdb 8a3d 0ab0 cfbc 5c83 633d 08d3 55bb
000000b0: 6c72 9e3c 0e73 8c3b 676a 1fbd 6ae6 533d
000000c0: e1dd 90bd f012 59bd 1dfa 27bd 4772 71bd
000000d0: 246a 97bc 9a45 6b3d b1d0 9c3c 8739 ef3c
000000e0: ef80 b6bd a57b 193d c125 b0bd ea6f 1bbd
000000f0: 20f5 31bc 6a04 69bd 59af 883d 6fce e6bc
00000100: d9da 6ebd 9983 8ebd b815 103d 1132 a4bd
00000110: ad11 2f3b a66e a5bd 5242 143b 5d2c d3bc
00000120: cb9d a83d 73e6 66bd 3c34 9f3d 0584 c43c
00000130: be89 013d 28d5 32bd 93da 32bd e0a7 2e3d
00000140: 097f d73c 68fb 55bd bea3 1fbd b327 82bd
00000150: 3810 68bd cd49 a83a 86e4 8b3c 0038 33bd
00000160: 93c0 4d3d 8e05 f1bb f8d3 603c 7fd2 273d
00000170: ff20 38bc 11cb 2ebd f0cc aebc e6dd fd3c
00000180: 21e9 16bd b8d0 3a3b 3990 90bb b0dd 33bd
00000190: 4d63 30bd 3c83 ed3c 4ea7 67bd 52d2 5a3d
000001a0: 4582 e1bb bbfd 10bd 70a8 603d e9c0 273b
000001b0: 0849 273d b485 e4bc d622 2cbd 2684 eb3c
000001c0: 9af6 253d 67dd 8dbd e633 17bd 42de 6e3d
000001d0: a8e7 9d3d 9251 4ebd 8fe5 79bd b063 08bd
000001e0: 2cbd 243d 5231 0e3d 6924 e43b a9cf 343d
000001f0: 576b 9bbc 0736 873d 5e53 91bd b777 f5bc
00000200: 1939 663d 3271 833d 6593 f6bc a392 a9bd
00000210: 754c 823d 6afb 27bd f994 e1bb f4e8 ebbc
00000220: b847 353d c122 933d ac69 ad3c 54c5 a7bc
00000230: 92a3 ae3c ca80 80bd f224 3cbd 9292 233d
00000240: 2ae2 403c 3a5b d9bc 2e8a 3abc 8ace e2bc
00000250: 6f7f 6ebd 2368 36bd 4fed 3abc 460a 1e3d
00000260: 0430 413d 9860 c13c 9a2c cd3c 480a 5fbd
00000270: a1af acbd f63d 11bd 015e ed3c b34e 123d
00000280: dde8 cc3c 423c 5a3b 312e a43c 370d 413d
00000290: 583c 343d 925d 363d 68d6 01bd 62f7 3abd
000002a0: 0ff2 1bbc c4c7 713d 3720 04bc ebf4 5abd
000002b0: dce3 4cbd e7e3 28bd 5924 8cbd e73a 95bc
000002c0: d791 9ebc 66f6 7f3d 83f9 2f3d a265 38bc
000002d0: b7b1 6dbd 7e61 32bd 121c 27bd 22f1 adbd
000002e0: 4548 243d 2763 69bc 7854 a1bd 3fb7 84b9
000002f0: 6329 673d 0b60 8abd 239d 46bd 8cd9 21bd
00000300: 7e91 a5bd d515 f33c 0eb3 91bd 7988 c1bd
00000310: 4bf0 16bd 465b 833d 41b1 93bd bc11 393c
00000320: 7604 2bbd 1864 483d 71d6 27bd 8fef 913c
00000330: 7e13 a7bd f33e 8dbd da3c 243d 671f babc
00000340: c70b 6cbc 3497 a7bd 0b86 86bd 08e5 0e3c
00000350: 0d8a 11bd 854d b5bd 7c51 2539 0f18 05bd
00000360: dabc 35bd ce5e 2d3d 7285 81bd 5b94 913d
00000370: 4c78 863d 10b1 96bb c146 76bd 1959 05bd
00000380: 035a 78bb 05a6 64bd 634c 093d d73b 483d
00000390: 833e 7d3d 4be9 f83c ff0c 7dbd 8ae2 7d3d
000003a0: 3f5e a63c f33f fcbc 71dd ff3c 7699 6fbc
000003b0: 35df c63c 1fb7 c2bd 344f 4abd 35a5 263b
000003c0: 12ca 183d 7795 75bd 8d5a 3fbd 47cf d33c
000003d0: 0d37 eb3c 662c 97bd 48f5 aebc 0986 8f3d
000003e0: bc74 05bd af1c a23d ddb2 213d 3dff 113d
000003f0: 12aa 58bc d753 a2bd 9cc0 a33b 318d 9f3d
0.08156901 0.06455334 0.011178755 -0.05412257 0.040017337 -0.02889875 0.042013522 0.053718977
-0.052618284 0.03536166 -0.005898667 -0.042358883 0.07300444 -0.022972235 -0.04099189 -0.07119592
-0.101145454 -0.014412235 -0.06354544 0.046411756 0.01158685 0.09931771 -0.005149087 0.08444659
0.0054079373 0.011613681 0.052589446 0.041060533 -0.021562913 0.05210336 -0.063095264 -0.08324047
0.02551008 -0.0026120367 0.00020099587 -0.029728035 -0.033199392 -0.05547723 0.051696442 0.015776005
0.06780123 -0.025352497 0.055545196 -0.0032627005 0.01934167 0.0042861765 -0.038919833 0.05173341
-0.0707357 -0.052996576 -0.04101001 -0.058946874 -0.018483229 0.057439424 0.01914248 0.029202236
-0.08911311 0.037471432 -0.08600951 -0.037948526 -0.010861665 -0.056888975 0.0667407 -0.028174607
-0.05831418 -0.06958694 0.035176963 -0.08017362 0.0026713416 -0.08077745 0.0022622538 -0.02577799
0.082332216 -0.056372117 0.07773635 0.023988733 0.0316255 -0.043660313 -0.04366548 0.042640567
0.026305692 -0.052241713 -0.038974516 -0.06355228 -0.056656092 0.0012839377 0.017076742 -0.043754578
0.05023248 -0.0073553985 0.013722412 0.04097223 -0.011238336 -0.042674128 -0.021337956 0.030989598
-0.036843423 0.0028505754 -0.004411724 -0.04391259 -0.04306345 0.028993241 -0.05655604 0.053423233
-0.0068819844 -0.035398226 0.054848135 0.002559716 0.040841132 -0.027895786 -0.04202541 0.028749537
0.04051838 -0.06926995 -0.03691473 0.05831743 0.077102005 -0.05037076 -0.06100994 -0.033298194
0.04021947 0.034715004 0.0069623482 0.044143353 -0.018972082 0.06602102 -0.07095979 -0.029964311
0.056206796 0.06418075 -0.03009958 -0.08279922 0.06362239 -0.04101125 -0.006884214 -0.028797604
0.04425785 0.07184363 0.021168552 -0.020479836 0.02131823 -0.062745646 -0.04593367 0.039934702
0.011772672 -0.026532758 -0.011385484 -0.027686376 -0.058227 -0.044532906 -0.011409118 0.038584016
0.047164932 0.02360563 0.025045682 -0.054453164 -0.08431936 -0.03545948 0.028975489 0.035719585
0.025013382 0.0033300077 0.020041557 0.047131743 0.04400286 0.04452283 -0.031698614 -0.04564608
-0.0095181605 0.059028402 -0.008064321 -0.05345623 -0.05002199 -0.04123297 -0.0684287 -0.018216563
-0.019356651 0.062490843 0.042962562 -0.0112547 -0.05803081 -0.043550007 -0.040798254 -0.08493258
0.040107984 -0.014244831 -0.07877439 -0.0002531353 0.056435954 -0.067566 -0.0484897 -0.03951411
-0.08084391 0.029673496 -0.0711423 -0.09449858 -0.036850255 0.064138934 -0.07211543 0.011295732
-0.0417523 0.04892358 -0.04097599 0.017814426 -0.08158015 -0.06896772 0.040097095 -0.022720052
-0.014407105 -0.081831366 -0.065685354 0.0087215975 -0.035532046 -0.08852676 0.00015765982 -0.032493647
-0.044369556 0.04232674 -0.06324281 0.07108375 0.065659136 -0.004598744 -0.06012607 -0.032555673
-0.0037895448 -0.05582239 0.033520114 0.048885193 0.061827194 0.03038468 -0.061779972 0.061983623
0.020308612 -0.030792212 0.031233521 -0.01462399 0.024276355 -0.09507584 -0.04939194 0.002542806
0.037302084 -0.059956994 -0.046717215 0.025855673 0.028712774 -0.07381515 -0.021357194 0.07007987
-0.03258203 0.07915627 0.039477218 0.035643805 -0.013224142 -0.079261474 0.004997326 0.07790602

network.1.conv2.bias f4 [64]
00000000: 72fa 02bd d2a6 9cbc df8e 35bc d7fe 793d
00000010: 1895 f43a 37a3 683c 67fa 073b 673d 12bc
00000020: d81d 35bd f64e abbc 452c 01bc cbe5 89bc
00000030: 465a 603c 7915 903c 20cc 7bbd ae4b 5bbc
00000040: 6085 69bb 2702 52bc 4daf b9bc 5875 583d
00000050: 8033 9bbb 3fc2 3a3d 8b8b a43c d82b 56bd
00000060: d007 343d 8771 6d3d c0e1 643c 7e44 a33c
00000070: 0442 573d 84a8 60bd 06bd 443d e659 7dbd
00000080: 0c38 45bd 1e37 8dbb 7a66 6dbd caf2 3dbd
00000090: f561 85bd f827 debc 83a7 47bd a2be ce3b
000000a0: 7136 953d ad7f 773d 1071 d3bc fd14 063d
000000b0: 1383 cab9 1a75 28bd 22cf 263d 8724 953b
000000c0: ab7c 2e3c 8489 7bbc 4b4f a43c 8088 a8bc
000000d0: 3340 233d 2fa5 f93a b326 693d 51b4 b23d
000000e0: f282 e63b 842f 45bc 2eac 8abd e827 fabc
000000f0: ece2 0e3d af71 923c ed99 683d c236 bb3c
-0.031977125 -0.019122515 -0.011081426 0.06103405 0.0018660156 0.01419907 0.0020748617 -0.008925772
-0.044217914 -0.020911675 -0.00788409 -0.016833207 0.013693398 0.017588364 -0.061473966 -0.013384743
-0.0035632476 -0.012817896 -0.022666598 0.052846283 -0.004736364 0.045595404 0.02008607 -0.052287906
0.043952763 0.057969596 0.013969839 0.01993012 0.05255319 -0.05484821 0.04803183 -0.061853312
-0.048149154 -0.004309549 -0.057959057 -0.04637412 -0.065128244 -0.027118668 -0.048743736 0.0063093463
0.072857745 0.060424495 -0.025810748 0.03273486 -0.000386261 -0.0411273 0.04072488 0.0045514735
0.01064984 -0.0153526105 0.020057341 -0.0205729 0.039856147 0.0019046421 0.056921672 0.08725799
0.007034653 -0.012035254 -0.06771122 -0.030536607 0.03488438 0.017876474 0.05678742 0.022853259

network.2.conv1.weight f4 [64, 64, 3]
00000000: 7553 1abd e8e1 973d 8b0a 7e3c 2809 913c
00000010: dde2 d13b 0258 c43b 2ce6 d53d da4d b83c
00000020: 8ab8 4abd d4ea 85bc 618d 303b d834 79bd
00000030: 7b33 05bd 1867 cf3c 6266 843d e1d2 e53a
00000040: 984d 873d 32b5 50bd 562b 843b 661a c63d
00000050: c01a 0abc 8c34 513d a99f 1c3d cb09 afbc
00000060: 9ba5 9bbd 8ad2 f4bd 83f7 173c 9560 c1bc
00000070: 3725 15bd 6aa7 5b3d 4b62 c1bd b2b0 afbc
00000080: 6683 71bd 200c b43d 9867 813d 30cd bc3d
00000090: d8ce 483d 05d7 a23c 9cd5 263d b4a0 e2bc
000000a0: 9d16 aa3d 9480 8ebb baa9 073c 09a7 8a3b
000000b0: 54b9 92b8 e151 3b3c f130 0d3d b460 65bc
000000c0: f4e0 0d3d 72cb 2e3c 4292 55bd 7885 973d
000000d0: 6a38 673d b694 613d 65c2 c53d 0707 d53d
000000e0: a2a1 42bd 44a3 403d 80bb 65bb 22b9 283d
000000f0: 0785 0b3d 58bc a6bc 2fa1 9dbc 9b9e 633d
00000100: 61cf be3b cea5 b43c 46bc 373d 814b 4cbd
00000110: 8397 6dbc 4c99 373c 0af2 613d fa8b 07bd
00000120: 891e 32bb a876 73bc f2f5 013d 06ab b5bb
00000130: bd10 3fbd 1a07 853c ac8d e3bc 08ef 90bd
00000140: 947b 453d f2f1 17bd 685e dd3c 0196 3dbd
00000150: 4c2b 9a3d d9e1 353d 1543 803c 9d7b c73c
00000160: 6613 843c 808d 523d 7cf8 94bb c99d ba3b
00000170: 6c89 a8bc 7741 b63d c861 da3b b439 163d
00000180: 38af 4ebd 3a4a 08bd 32de 36bc 46d7 723d
00000190: 60c0 cd3d 9ad7 a03b 593b 9dbd 0b57 a1bc
000001a0: 85b4 553d 9f55 af3c 2f74 b93d 5eb7 563c
000001b0: cc14 683c 32fc 2bbd 7d97 edbb 1eab f3bc
000001c0: df3c e3bc 6775 bcbc 060a d13c c66b 4d3d
000001d0: f9b8 1f3d 1890 3b3b 49ab 1ebb d888 92bc
000001e0: 0277 63bb 6f8d 453d 014b c83c 826f 753d
000001f0: bbf3 3a3d 4d39 133d be6b b43d e98a db3d
00000200: 4a39 d23d 9f82 c0bb c284 6b3d e18a 6f3d
00000210: 9b65 44bd 3413 993d e933 3ebc 2910 a73d
00000220: 0d06 433c f2e3 193d 906d 0d3d ffc5 913d
00000230: 3caa fd3b e51f 833d 52b7 813d 2138 26bd
00000240: 119b 2abd 2c70 11bd 5b2f 783b ebe4 1e3d
00000250: 4862 43bb d884 79bd e3f5 7dbd 63c5 333d
00000260: 9d39 35bc ec4f 563c 6568 49bd a636 44bd
00000270: f450 31bc 00fa cfbc fcd6 cd3c 32c5 6f3d
00000280: e9bd 41bc a674 873d 1431 8e3d 25ef e23c
00000290: cb33 a63c a005 18bd dbc3 7abb d045 f4bb
000002a0: e959 413d 0ea2 0bbd 32fc afbc 42b9 b23c
000002b0: 3462 023c 6f01 46bd d02b 39bc eb6f 9f3d
000002c0: 1b38 d93c f395 033d c641 8c3b cec7 973d
000002d0: e6f6 c13d 1711 8e3d 58b6 263d 4189 973d
000002e0: 6803 273d 04d1 68bd 21a1 8b3d f295 8bbc
000002f0: 9b22 8a3d c66d 83bd 3f98 80bd d91f 473d
00000300: 5582 42bd f41a 313d 978d 323d ab46 b23c
00000310: 2f6f 7ebc bb87 3f3d 3d93 d4bc 1685 0fbd
00000320: 6de7 203d b23d ba3c 4900 a23d e590 3d3d
00000330: a971 e43c a6e3 4dbc c999 bdbc 5c37 d23c
00000340: 4894 2a3d f2cb 48bd 8f20 d43c 3852 a0bc
00000350: 5805 ae3a 2518 c23d f4ca 1ebc 3f53 44bd
00000360: 4de4 2dbd bb73 173d fe39 313c 5bef b3bc
00000370: e121 7fbd d63f 203d 240e 4a3d fd87 9ebc
00000380: c2f4 d4bd d099 563d 1c42 8abb 308d 86bc
00000390: 7f5a 1dbc 7ac9 c83c 6fca 12bd 289d 7dbb
000003a0: 0d00 083d 0dbb 463d 4b81 7abd e0c4 eb3c
000003b0: 0275 a5bd 7682 473d 913e c7bc ee85 9c3d
000003c0: b3f4 2d3d 1e03 6d3d 692e a23d 7d15 973d
000003d0: a895 5bbd 633f 5c3d e66f b3bc 394e 993d
000003e0: 5722 233c 76d6 babd 2bde 183d 798f 5bbd
000003f0: 2795 313c 1d8b a9bd ced6 20ba 7ad7 b8bb
-0.037677247 0.07416135 0.015505443 0.017704561 0.006405218 0.0059919367 0.104442924 0.02249806
-0.049492396 -0.016347326 0.0026939737 -0.06084141 -0.0325198 0.025317714 0.064648405 0.001753416
0.06606597 -0.05095405 0.0040334864 0.09673004 -0.008429229 0.051075503 0.0382382 -0.021366974
-0.07599946 -0.1195422 0.00927532 -0.023605624 -0.036412444 0.053626455 -0.09442576 -0.02144656
-0.058963202 0.08791375 0.06318587 0.09218824 0.049025387 0.01987792 0.040731058 -0.02766452
0.083050944 -0.004348824 0.008280212 0.004231338 -6.9963426e-05 0.011433096 0.034470502 -0.014000107
0.03463836 0.010668622 -0.052141435 0.07398504 0.056450285 0.055073462 0.096562184 0.10401731
-0.047517426 0.047030702 -0.0035054386 0.04119218 0.03406241 -0.020353481 -0.019241897 0.05557118
0.0058230613 0.022051718 0.044857286 -0.049876694 -0.014501455 0.011205982 0.055162467 -0.033092476
-0.0027178845 -0.014859833 0.031728692 -0.005544069 -0.046646822 0.016238738 -0.027777515 -0.070768416
0.048213556 -0.03709597 0.027022555 -0.046285633 0.075277895 0.04440484 0.015656987 0.024350936
0.016122531 0.051404476 -0.004546223 0.005695079 -0.02057334 0.08899205 0.0066644885 0.036676124
-0.05046007 -0.033273913 -0.011161374 0.059287332 0.10046458 0.004908514 -0.07677335 -0.019694826
0.05217411 0.021403132 0.090553634 0.013105242 0.014165115 -0.04198856 -0.007250725 -0.029744681
-0.027738987 -0.0230052 0.025517475 0.05015161 0.038994763 0.0028619822 -0.002421098 -0.017887518
-0.0034708385 0.048230585 0.024449827 0.059920795 0.045642596 0.03594332 0.08809613 0.107198544
0.10264833 -0.0058749462 0.057499655 0.058482055 -0.04794846 0.07474366 -0.011609056 0.08157379
0.011903298 0.0375709 0.034528315 0.07117843 0.007741241 0.06402568 0.06333794 -0.040580872
-0.04165179 -0.035507366 0.0037870023 0.038792532 -0.002981322 -0.060917705 -0.062002074 0.043889415
-0.011061099 0.013080578 -0.049171824 -0.04790368 -0.010822523 -0.025387764 0.025126927 0.05853767
-0.011825063 0.06614046 0.06942955 0.027701924 0.020288369 -0.03711474 -0.0038263712 -0.0074546114
0.047204886 -0.034090094 -0.02148256 0.021816853 0.007957984 -0.04834121 -0.01130195 0.077850185
0.026516011 0.032125425 0.0042803017 0.074111566 0.0947092 0.069368534 0.04070124 0.07399226
0.040774733 -0.056839958 0.06817842 -0.017039273 0.06744882 -0.06417422 -0.06279039 0.048614357
-0.047487576 0.043238595 0.04359206 0.021762213 -0.015529438 0.046760302 -0.025949115 -0.03503903
0.039283205 0.022734497 0.07910211 0.04628076 0.027886229 -0.012566483 -0.02314462 0.025661163
0.04164532 -0.049022622 0.025894431 -0.019570455 0.0013276739 0.094772615 -0.0096919425 -0.047930952
-0.042454053 0.036975604 0.010817049 -0.02196472 -0.06228817 0.03912338 0.04932989 -0.019351954
-0.10398246 0.05239278 -0.0042193066 -0.016424745 -0.0096040955 0.024510134 -0.035837587 -0.0038698409
0.033203173 0.04851823 -0.06115846 0.0287804 -0.08078958 0.0487084 -0.024321826 0.076427326
0.04246969 0.0578643 0.07919008 0.073771454 -0.05360952 0.053771388 -0.021903943 0.07485623
0.009956918 -0.091229364 0.03732125 -0.053603623 0.010838783 -0.08278487 -0.0006135524 -0.005640921

network.2.conv1.bias f4 [64]
00000000: cd7c 233d 3159 983a f23e 27bd 87c2 85bb
00000010: 8581 0c3d f931 133d 8fcf 14bd fc49 f8bc
00000020: f773 483d dd96 a73b f568 893d 138d c0bc
00000030: af0e 323c e869 73bd 1262 ecbc aa96 653d
00000040: 1fb1 703c fcff 20bd 864d c3bc bbca d5bc
00000050: 1dad b63b ef66 5c3d 6a9d 883d 90ed 833d
00000060: c05e 303d d4ce 383d 5805 8fbc 1605 7c3d
00000070: 4baf ca3c 0e6c 8dbd e8eb 2e3d f917 a33d
00000080: 8c00 0a3c e7a4 113d d4c0 2f3d 8543 9c3d
00000090: a145 0ebd 26b4 ba3c e1be 1bbd a57e de3c
000000a0: 2f77 e5bc 224c 7a3d ac97 33bd e79a 34bd
000000b0: 8936 93bc 8d58 893d 9283 a4bc f198 813d
000000c0: 64e0 913d 515c 973d a0bf b63d b7ce 8bbb
000000d0: 3155 5c3a 9859 33bc 3320 433d 2bd9 74bd
000000e0: bef3 53bd 938c 98bc d827 72bb 0688 823c
000000f0: f298 e6bc 6b17 563d 34e7 57bd 945e 233d
0.03991394 0.0011623261 -0.040831514 -0.0040820274 0.034303207 0.03593633 -0.036330756 -0.030308716
0.048938718 0.00511442 0.06709472 -0.02350477 0.010867759 -0.059427172 -0.028855357 0.056051888
0.014690666 -0.039306626 -0.023840677 -0.026097646 0.005574836 0.053809103 0.06670649 0.06441796
0.04305911 0.04511912 -0.017458603 0.061528288 0.02474179 -0.069053754 0.042705446 0.07963557
0.008422982 0.035557654 0.042908505 0.07630066 -0.034734372 0.02279098 -0.038023833 0.027159998
-0.028010933 0.061107762 -0.043845817 -0.04409304 -0.01797034 0.06706343 -0.020082269 0.063279994
0.07122877 0.07390655 0.08923268 -0.0042665857 0.00084050285 -0.010946654 0.04763813 -0.05977742
-0.051746123 -0.018621719 -0.0036950018 0.015934002 -0.028149102 0.052268427 -0.052710727 0.03988512
